_examples/Simulation/trad_LV/LVq_value_net.pt (torch, 329103 bytes, 8 tensors)

weight f4 [200, 2]
0	0xbeba6bd6	-0.36410397
1	0xbe027426	-0.1273962
2	0x3ea87612	0.3290258
3	0xbeeaee67	-0.45885012
4	0x3ed40871	0.4141269
5	0x3da66dd7	0.08126419
6	0xbf143301	-0.57890326
7	0xbf0adf73	-0.54247206
8	0x3ef71c2a	0.48263675
9	0xbe6db10b	-0.23212068
10	0x3e47c659	0.19509257
11	0x3f1751e8	0.59109354
12	0xbf88c3ad	-1.0684716
13	0x3e20fb8d	0.15720959
14	0xbf584dd9	-0.84493786
15	0x3df91598	0.12162322
16	0x3f0129d4	0.5045445
17	0xbf937385	-1.1519629
18	0xbea22880	-0.31671524
19	0xbf8dbad0	-1.1072636
20	0x3ea612db	0.3243626
21	0x3f00edec	0.5036304
22	0xbe87003b	-0.26367363
23	0xbe630fbc	-0.22173971
24	0x3eb535ea	0.35392696
25	0xbf07ab9f	-0.5299625
26	0xbecfdb08	-0.40596795
27	0xbe3ef9bc	-0.18649954
28	0x3f204a3b	0.62613267
29	0x3e91b9f8	0.28462195
30	0xbf33388e	-0.7000817
31	0x3d569b60	0.05239427
32	0xbefedacc	-0.49776304
33	0x3e7b5b30	0.24546504
34	0xbe22f360	-0.15913153
35	0x3eed64e5	0.4636604
36	0x3e946d58	0.28989673
37	0xbf94b0fc	-1.1616511
38	0x3e9ddb78	0.30831504
39	0xbe70bc50	-0.23509336
40	0x3f093b26	0.5360588
41	0xbf89374b	-1.0719999
42	0x3e7e33c8	0.2482444
43	0x3e7de817	0.24795566
44	0xbf0c20f9	-0.5473781
45	0x3f0c1f7f	0.5473556
46	0xbe83f264	-0.25770867
47	0x3dc8639e	0.097846255
48	0x3f17d83b	0.59314317
49	0x3decdd21	0.115656145
50	0x3d84a93f	0.06477594
51	0x3f0bb853	0.5457813
52	0xbe5bf41a	-0.21479836
53	0xbe7085d2	-0.23488548
54	0xbf422445	-0.7583659
55	0xbed97fc1	-0.4248028
56	0xbf231ae2	-0.63712895
57	0xbedc6a5d	-0.430499
58	0x3e0123c8	0.12611306
59	0xbf5d4ef3	-0.8644859
60	0x3e2377af	0.15963624
61	0xbf5e9576	-0.8694681
62	0x3e8d0382	0.2754174
63	0xbdce8dba	-0.10085626
64	0x3e8fdda7	0.28098795
65	0x3ed61282	0.41810995
66	0xbf1ee2c4	-0.62064767
67	0xbed1ef41	-0.4100285
68	0x3e429cf8	0.19005191
69	0xbd8c9578	-0.068644464
70	0xbeaa9da3	-0.33323392
71	0xbe1b4b69	-0.15165485
72	0xbebf5bf9	-0.37374857
73	0x3e8ec11f	0.27881715
74	0xbe97b71c	-0.2963189
75	0x3e3c07ba	0.18362322
76	0xbe9bbefa	-0.3041914
77	0x3f19ea02	0.6012269
78	0x3eb745fc	0.3579558
79	0x3f21858c	0.630944
80	0xbe2acc04	-0.16679388
81	0xbf181d49	-0.59419686
82	0xbe541816	-0.20712313
83	0x3eb1c5f9	0.34721354
84	0xbfa15e24	-1.2606854
85	0x3e3bea88	0.18351185
86	0xbe35fb53	-0.17771654
87	0x3eed1c8c	0.46310842
88	0xbf0a9518	-0.5413375
89	0xbe1e4ddd	-0.1545939
90	0x3f1e9024	0.6193869
91	0x3e9edf98	0.31029963
92	0xbd2e4e70	-0.042555273
93	0xbeac45e8	-0.33647084
94	0xbfbeac5c	-1.489635
95	0x3e1ba294	0.15198737
96	0x3f40c00c	0.7529304
97	0xbf07f11b	-0.5310227
98	0xbc326f28	-0.0108907595
99	0xbf90486a	-1.1272099
100	0x3f1ae375	0.6050332
101	0x3d2b3343	0.041796934
102	0x3ec16663	0.37773427
103	0x3cf641a4	0.030060597
104	0xbecd7f0e	-0.40135998
105	0xbeb29e95	-0.34886613
106	0x3ec8aec0	0.39195824
107	0xbdd0254c	-0.10163364
108	0x3f0fd0bf	0.56177896
109	0x3d236513	0.039891314
110	0x3f06b10c	0.526139
111	0xbe8b29b9	-0.2718027
112	0xbe4ecd36	-0.2019547
113	0xbe9589f8	-0.29206824
114	0x3e9b957f	0.30387494
115	0xbf3003dd	-0.68755895
116	0xbeacfcb4	-0.33786547
117	0xbead2533	-0.33817443
118	0xbf0925f2	-0.53573525
119	0xbf0e509e	-0.5559176
120	0xbec1701d	-0.37780848
121	0xbea50766	-0.32232207
122	0x3de50109	0.11181838
123	0x3d0a3809	0.033744846
124	0xbecb2a77	-0.39680836
125	0xbf149df6	-0.5805353
126	0xbe2c0a6c	-0.1680085
127	0x3f299725	0.66246253
128	0xbf15a9c8	-0.5846219
129	0x3f255b3f	0.64592355
130	0x3efb7dad	0.4911932
131	0x3f099a07	0.5375065
132	0xbf06cfa0	-0.5266056
133	0x3ede06b5	0.43364492
134	0x3f18cc06	0.59686315
135	0x3e82cb7b	0.25545868
136	0x3e99e8b4	0.3006035
137	0xbdd8540a	-0.10562904
138	0x3d9201ad	0.07129226
139	0x3e278bcb	0.1636192
140	0x3eec2443	0.46121415
141	0x3ca371d2	0.019951735
142	0xbebfc163	-0.3745223
143	0xbd82dd18	-0.063898265
144	0x3ea5e752	0.32403046
145	0x3ef62c66	0.48080748
146	0xbf252458	-0.6450858
147	0xbdb69fe6	-0.08917217
148	0x3f2125a7	0.6294808
149	0x3ed99552	0.42496735
150	0xbf2533c6	-0.64532125
151	0xbeb0e0c6	-0.3454649
152	0xbdc9c58a	-0.09852131
153	0x3ec5fed9	0.38670996
154	0x3f539d83	0.8266222
155	0xbf3326d5	-0.6998113
156	0x3f059185	0.5217517
157	0x3eb96b2a	0.36214572
158	0x3d48d4e9	0.049031172
159	0x3f1be97e	0.60903156
160	0x3e8da3b0	0.27663946
161	0xbef4eff1	-0.4783931
162	0xbf1cca5e	-0.6124629
163	0xbf0ce8ff	-0.55043024
164	0x3f2770d5	0.65406543
165	0x3e40bc0d	0.18821736
166	0x3f3e829a	0.7441803
167	0x3f13f8ef	0.5780172
168	0x3f2323c2	0.6372644
169	0x3f1d77c2	0.6151086
170	0xbf4bc189	-0.79592186
171	0x3f19c8b9	0.60071903
172	0xbe889e9b	-0.26683506
173	0xbf3335e6	-0.7000412
174	0xbcaea360	-0.021318138
175	0x3e238d5c	0.15971893
176	0x3f195032	0.59887993
177	0xbe3a81f2	-0.18213633
178	0x3dd00967	0.10158043
179	0x3f16aff9	0.5886226
180	0xbfbb7667	-1.4645509
181	0x3e65d3f7	0.2244414
182	0x3e23edf8	0.16008747
183	0xbfb0376f	-1.3766917
184	0x3f277f84	0.6542895
185	0xbd50cfed	-0.050979543
186	0xbf1f8943	-0.6231882
187	0xbf27e192	-0.6557857
188	0xbf102157	-0.5630087
189	0xbe8c1338	-0.27358413
190	0xbf20d6cf	-0.6282777
191	0x3ea0b207	0.31385824
192	0x3e842712	0.25811058
193	0x3f093423	0.5359518
194	0x3e1a960c	0.15096301
195	0xbec2e796	-0.3806731
196	0xbe2e6704	-0.17031485
197	0xbe56d5f8	-0.2098006
198	0x3e16783c	0.14694303
199	0x3ed8f602	0.4237519
200	0x3ee2596c	0.44208848
201	0xbee16c2e	-0.44027847
202	0xbf180e71	-0.59397036
203	0xbf155f0f	-0.5834817
204	0xbe97b42e	-0.29629654
205	0x3ed693bc	0.41909587
206	0x3f2bcbc2	0.67107785
207	0x3f20c361	0.62798125
208	0xbf268fa6	-0.6506294
209	0x3e3ff3e2	0.18745378
210	0x3e33ad64	0.17546612
211	0x3eafdfee	0.34350532
212	0xbf412c21	-0.7545796
213	0x3ee141e5	0.43995586
214	0xbbb38d43	-0.005479486
215	0xbf3e1b16	-0.7426008
216	0x3ec0aa84	0.37630093
217	0x3e665b05	0.22495659
218	0x3e870f18	0.26378703
219	0x3f12f4d1	0.5740481
220	0x3da06388	0.07831484
221	0x3edb2d68	0.4280808
222	0xbe8c5c42	-0.27414137
223	0x3ef985c0	0.48734856
224	0x3f138fe6	0.57641447
225	0x3eae3de5	0.34031597
226	0x3e89b48f	0.26895568
227	0xbf78ce9e	-0.9719027
228	0x3efccb81	0.4937401
229	0x3e57c461	0.21071006
230	0x3cba1677	0.02271579
231	0xbf6bb62e	-0.9207486
232	0x3ec4db50	0.38448572
233	0xbefe051e	-0.4961328
234	0xbe6db14c	-0.23212165
235	0x3e3dc5c0	0.18532467
236	0x3eb69b6a	0.35665447
237	0x3e235370	0.15949798
238	0xbf28eb94	-0.65984464
239	0xbe82a8fd	-0.25519553
240	0x3f1a1cbe	0.6020011
241	0x3f04561b	0.51693887
242	0x3f2825e2	0.65682805
243	0x3e8a6a20	0.27034092
244	0x3cf3761b	0.029719403
245	0xbee5b900	-0.44867706
246	0x3f2ff5ca	0.6873442
247	0x3ef9d85b	0.4879788
248	0xbf8e662f	-1.1124934
249	0x3eea0803	0.45709237
250	0xbee75c0f	-0.45187423
251	0xbcf2dce0	-0.029646337
252	0xbf83a57a	-1.0284874
253	0x3e8ab9cb	0.27094874
254	0x3f02fdb1	0.5116835
255	0xbf65a280	-0.8970108

bias f4 [200]
0	0x3e76c06c	0.2409684
1	0xbf2993d9	-0.6624122
2	0x3bd0cc24	0.0063719917
3	0x3eae0ed6	0.33995694
4	0xbae272cb	-0.0017276643
5	0x3f07f197	0.5310301
6	0xbaf86ed6	-0.001895393
7	0x3d349097	0.044083204
8	0xbbb4e1c3	-0.005520077
9	0xb6831a60	-3.9071747e-06
10	0x3bb82436	0.005619551
11	0x3f078734	0.5294068
12	0xbb543a76	-0.0032383478
13	0xbe6be160	-0.23035192
14	0x3c80f293	0.015740668
15	0xbf281ef7	-0.6567225
16	0xbecb3fd5	-0.39697137
17	0x3e9ee3c7	0.31033155
18	0x3dfd1c99	0.1235897
19	0x3ef93229	0.48671082
20	0xbdaa7b0c	-0.083242506
21	0xbe0cefa1	-0.13763286
22	0xbeba5db1	-0.36399606
23	0x3ee1ea31	0.44123986
24	0x3bd4819a	0.0064851763
25	0xbf13de05	-0.5776065
26	0xbe59d348	-0.21272004
27	0xba997b86	-0.0011709786
28	0x3f310d41	0.6916085
29	0x3e79c32d	0.2439086
30	0xbad13cfe	-0.0015963612
31	0x3b032339	0.0020010008
32	0xbe8df9a1	-0.27729514
33	0xbe9bd121	-0.3043299
34	0xbf16c628	-0.5889611
35	0x3e761c4e	0.24034235
36	0x3ed5b68d	0.41740838
37	0x3ee5e657	0.44902298
38	0x3e891398	0.2677276
39	0xbe844f30	-0.25841665
40	0xbe1307e8	-0.14358485
41	0x3ea5bace	0.32369083
42	0x3e2bf0ab	0.16791026
43	0xbe5f1bf3	-0.21788006
44	0x3e99c4a2	0.3003283
45	0xbeb784e6	-0.3584358
46	0xbf1a5a91	-0.60294443
47	0x3ce6954b	0.02814736
48	0xbb41bd61	-0.0029562342
49	0x3e8eb0ad	0.27869168
50	0xbee91a24	-0.45527756
51	0xbecda3e1	-0.40164092
52	0xbe114200	-0.14185333
53	0xbe73c881	-0.23806955
54	0x3eb21773	0.34783515
55	0x3b750253	0.0037385419
56	0x3ebd3fae	0.36962646
57	0xbe277bfd	-0.16355892
58	0x3f1a8d2b	0.60371655
59	0x3f0358df	0.5130748
60	0xbe1e6b18	-0.1547054
61	0x3c781e6f	0.015143975
62	0xbeaaa7f1	-0.33331254
63	0x3e8d6e9b	0.27623448
64	0xbebc8667	-0.3682129
65	0xbdb34428	-0.08753234
66	0x3d051ba8	0.03249708
67	0xbe2a5958	-0.16635644
68	0xbe4d0f21	-0.20025302
69	0x3b788e96	0.0037926785
70	0x3e37934f	0.17927288
71	0xbe7521f6	-0.23938736
72	0x3ba7c768	0.0051202066
73	0x3e8152c0	0.25258446
74	0x3bab1781	0.0052213077
75	0xbc55ef40	-0.01305753
76	0x3e644901	0.22293474
77	0xbc076df9	-0.008265966
78	0xbdf990a7	-0.12185793
79	0x3be37c82	0.0069423327
80	0xbcbf94b2	-0.023386333
81	0xbf2197fa	-0.6312252
82	0x3e49fe37	0.19725882
83	0x3ea6199d	0.32441416
84	0x3e55ed64	0.20891339
85	0xbe7c332d	-0.24628897
86	0xbf342bb6	-0.703792
87	0xbeb304bd	-0.34964553
88	0xbef9e7f5	-0.48809782
89	0x3ecb1741	0.3966618
90	0x3c605ee1	0.013694496
91	0x3b61fc54	0.0034482675
92	0x3efafab3	0.49019393
93	0xbf06d00b	-0.526612
94	0xbf1f972a	-0.62340033
95	0xbe427c4a	-0.18992725
96	0x3b954cba	0.0045562657
97	0xbe8e7a0f	-0.27827498
98	0xbe823a59	-0.2543514
99	0xbf13047b	-0.5742871
100	0xbb7c5fd2	-0.0038509262
101	0xbec98069	-0.39355782
102	0x3ea178f3	0.3153759
103	0xbec9c0b8	-0.39404845
104	0x3c638528	0.013886727
105	0x3bb076ee	0.0053852713
106	0x3b1830fa	0.0023222552
107	0x3eb91c7f	0.36154553
108	0x3d776167	0.060395624
109	0x3cb0a235	0.021561721
110	0xbdaf071d	-0.085462786
111	0x3e8c26df	0.27373406
112	0x3f037631	0.5135222
113	0xbb3e0619	-0.0028995334
114	0xbdce350c	-0.10068712
115	0x3ebdc272	0.37062413
116	0x3ed26f82	0.411007
117	0xbee27faf	-0.4423804
118	0x3b9f090a	0.0048533725
119	0xbe2f197c	-0.17099565
120	0xbe791c29	-0.24327148
121	0xbdaee080	-0.08538914
122	0x3e804401	0.25051883
123	0xbf1eae27	-0.61984485
124	0xbbbb520b	-0.0057165674
125	0xbb221c00	-0.0024735928
126	0xb577834c	-9.220573e-07
127	0xbbfd8c12	-0.007737645
128	0xbea22d74	-0.31675303
129	0xbe18ae52	-0.14910248
130	0xbd64e7a0	-0.055884957
131	0xbecb0d2b	-0.39658484
132	0xbe9b4b33	-0.3033081
133	0x3f08298f	0.53188413
134	0xbe16e8a7	-0.14737187
135	0xbede26c4	-0.4338895
136	0xbe181608	-0.14852154
137	0x3b8162d4	0.003948549
138	0x3f19103d	0.597904
139	0x3eb8099c	0.3594483
140	0xbdcb9655	-0.09940783
141	0xbdc8fe91	-0.0981418
142	0x3b93156f	0.004488639
143	0xbee33b55	-0.44381204
144	0x3e96d07b	0.29455933
145	0xbf036c5f	-0.51337236
146	0xbf317b9f	-0.69329256
147	0xbed7cf1a	-0.42150193
148	0x3d68baa9	0.056818638
149	0xbe0e4b90	-0.13896012
150	0xbe9dc8ca	-0.30817252
151	0xbefed53e	-0.49772066
152	0x3bc53851	0.0060186763
153	0x3e3c6e93	0.18401556
154	0x3f0ac7e2	0.54211247
155	0xbf2db13d	-0.6784857
156	0x3f0c25aa	0.5474497
157	0xbe19e3b0	-0.15028262
158	0xbf1190ed	-0.56861764
159	0x3f1536fb	0.5828702
160	0x3bc40347	0.005981836
161	0x3a6b8530	0.0008984385
162	0x3e54b6f8	0.20772922
163	0x3ca214b3	0.01978526
164	0xbebc146a	-0.36734325
165	0xb57d1be3	-9.4290425e-07
166	0xbd30f2e2	-0.04320038
167	0x3f0df5a5	0.5545295
168	0x3e0a6fe9	0.13519253
169	0x3ced76ec	0.02898737
170	0xbdb48a9c	-0.088155
171	0xbef33cda	-0.47507364
172	0x3f087ea0	0.53318214
173	0x3eec2613	0.46122798
174	0xbf2ff1b2	-0.6872817
175	0xbef57160	-0.4793806
176	0x3e7a99a1	0.24472667
177	0xbef4b0b8	-0.47791076
178	0x3f173adf	0.59074205
179	0xbdbb8c7d	-0.091576554
180	0x3c823c46	0.015897881
181	0xbeb2e084	-0.34936917
182	0xbecfd63a	-0.4059313
183	0xbe60a2da	-0.21937123
184	0x3e579aef	0.21055196
185	0x3f087def	0.5331716
186	0x3e1a82c0	0.1508894
187	0x3e08494c	0.1330921
188	0x3e88d1ee	0.26722664
189	0x3ba7abd2	0.005116918
190	0x3eda6d4f	0.4266152
191	0xbd65ac70	-0.056072652
192	0xb7fe1f01	-3.0293597e-05
193	0xbe2a9016	-0.16656527
194	0xbedd5e03	-0.43235788
195	0xbf0c752b	-0.54866284
196	0xbf170d78	-0.59004927
197	0x3ea29418	0.31753612
198	0xbecf606d	-0.40503255
199	0x3d8ee777	0.06977742

weight f4 [200, 200]
0	0xbc9b2f3e	-0.018943425
1	0xbd7b7eb6	-0.061400138
2	0xbcce7544	-0.025202401
3	0x3d44775c	0.047965392
4	0x3c813654	0.015772976
5	0xbd720d7e	-0.0590949
6	0x3c904bc0	0.017614245
7	0x3d8ccd61	0.068751104
8	0x3c6155f0	0.013753399
9	0xbd28b68e	-0.041189723
10	0x3d88852d	0.06666026
11	0x3a2c5a00	0.00065746903
12	0x3d909049	0.0705877
13	0x3d28f0c4	0.041245237
14	0xbd7dee1b	-0.061994653
15	0x3d37d288	0.044878513
16	0xbd889e16	-0.066707775
17	0x3d012a6c	0.031534597
18	0xbcb73748	-0.022365227
19	0xbca5f75c	-0.020259552
20	0xbd7a6962	-0.061135657
21	0x3ad29d40	0.0016068593
22	0x3cebb10c	0.028770946
23	0x3d81534b	0.06314715
24	0xbce25212	-0.027627025
25	0xbd68d3fc	-0.05684279
26	0xbd88bdb1	-0.06676806
27	0xbc1f26b8	-0.009713821
28	0xbd119038	-0.03553793
29	0xbd77b61a	-0.0604764
30	0x3d274bec	0.04084389
31	0x3c890b18	0.016728923
32	0x3cd6184c	0.026134633
33	0x3d611c92	0.054958887
34	0x3cc22610	0.02369979
35	0xbca6e352	-0.020372067
36	0x3c58e800	0.013238907
37	0xbd4d182f	-0.05007189
38	0xbc82da3c	-0.015973203
39	0xbd8d8de7	-0.06911831
40	0xbcb8b4cc	-0.022547148
41	0x3d6cb63e	0.057790987
42	0xbc4a5370	-0.012348995
43	0x3d088be8	0.03333655
44	0xbae7c900	-0.0017683804
45	0x3cf6af00	0.030112743
46	0xbb1b1a00	-0.002366662
47	0xbc79d8d0	-0.015249446
48	0x3d3c7aa0	0.04601538
49	0x3d270c02	0.040782936
50	0x3d8a53ef	0.0675429
51	0xbd71dc97	-0.05904826
52	0xbb146f80	-0.0022649467
53	0x3d414628	0.047186047
54	0xbd82d474	-0.063881785
55	0x3d2b21e2	0.04178036
56	0x3ca0b4b0	0.019617409
57	0xbc6b88d8	-0.014375888
58	0x3cbe71f4	0.023247696
59	0xbbd92a80	-0.006627381
60	0xbc745830	-0.014913604
61	0x3d6e3346	0.058154367
62	0xbd284247	-0.041078832
63	0xbcc2f56c	-0.023798667
64	0x3d76c29e	0.060244195
65	0x3d1883f0	0.0372352
66	0xbce62f0c	-0.028098606
67	0x3d50db78	0.05099055
68	0xbd2dea61	-0.04245985
69	0xbd162ba6	-0.03666272
70	0xbd30680a	-0.04306797
71	0x3d4718a8	0.0486075
72	0xbc5f2cc8	-0.0136215165
73	0x3b7fb520	0.003901787
74	0x3d497f14	0.049193457
75	0x3d0576fa	0.032584168
76	0x3d64c1e6	0.05584898
77	0xbd228336	-0.039675914
78	0xbcf73f4e	-0.030181553
79	0xbd6d2a27	-0.057901528
80	0xbd874649	-0.06605203
81	0x3d88da0d	0.06682215
82	0x3cb58b5c	0.022161178
83	0xbd24e9fd	-0.04026221
84	0x3c682080	0.014167905
85	0x3c832014	0.016006507
86	0xbd1ccdb6	-0.03828212
87	0x3cf8c810	0.030368835
88	0xbd1d248e	-0.03836494
89	0xbd15ca67	-0.03656998
90	0xbc54fdec	-0.012999993
91	0x3d3acec2	0.045607336
92	0x3c883b28	0.01662977
93	0x3c403350	0.011730984
94	0x3c958274	0.018250681
95	0x3d8af1b3	0.06784382
96	0xbd89fd21	-0.06737734
97	0xbd17d471	-0.037067834
98	0x3bb3d840	0.0054884255
99	0xbce6ebd0	-0.028188616
100	0xbc8d35de	-0.0172376
101	0xbb1d1b40	-0.002397254
102	0x3c538730	0.012910649
103	0xbc1e32d4	-0.009655673
104	0xbd8b6490	-0.0680629
105	0xbd5d1a6f	-0.053980287
106	0x3af0b240	0.001836367
107	0xbd7e10e3	-0.062027823
108	0xbd68d9db	-0.05684839
109	0xbb835e60	-0.004009053
110	0x3d087b1c	0.03332053
111	0xbcab7658	-0.020930454
112	0x3cbeab64	0.023275085
113	0xbd821fd5	-0.06353728
114	0x3d2db280	0.04240656
115	0x3b8232a0	0.00397332
116	0xbd35be6d	-0.044371057
117	0x3ca191d4	0.019722857
118	0xbd58e010	-0.052948058
119	0x3c880808	0.016605392
120	0xbd07aa10	-0.03312117
121	0x3d017ce6	0.031613253
122	0xbd4db231	-0.050218765
123	0x3d67fef6	0.056639634
124	0xbd4e26be	-0.050329916
125	0x3cd7fa70	0.026364535
126	0xbd86905a	-0.065705016
127	0xbd4d6058	-0.05014071
128	0xbcd126ae	-0.02553114
129	0x3c1f4928	0.009722032
130	0x3baaa250	0.0052073374
131	0xbd85fa56	-0.065418884
132	0x3d3cd2c0	0.046099424
133	0x3b2e34a0	0.002658166
134	0x3d83f8b9	0.064439245
135	0xbd618a6e	-0.055063657
136	0x3d2ce6b2	0.042212196
137	0xbd19b255	-0.037523586
138	0x3d888319	0.0666563
139	0xbc2d2890	-0.010568753
140	0xbc2035a4	-0.009778414
141	0xbd8c6e7a	-0.06857009
142	0xbcbef954	-0.023312248
143	0xbcd21ca4	-0.025648423
144	0x3d895253	0.06705155
145	0xbd7db9f5	-0.06194492
146	0x3d273ff4	0.040832475
147	0x3d59089c	0.052986726
148	0xbbca4160	-0.006172344
149	0x3c3732d0	0.011181548
150	0x3c878fe8	0.016548112
151	0x3d59f1cc	0.05320911
152	0x3c7f5ca8	0.015586056
153	0x3c69cf60	0.014270633
154	0xbd89eafc	-0.06734273
155	0xbd10fdce	-0.035398297
156	0x3d55e3cc	0.052219197
157	0xbd8fd467	-0.070229344
158	0xbcc1aa48	-0.023640767
159	0x3ccdaa78	0.0251057
160	0xbd8fea44	-0.070271045
161	0x3bc02400	0.0058636665
162	0xbced5a4e	-0.028973725
163	0xbd87b096	-0.06625478
164	0x3d8587ff	0.0652008
165	0x3b3f8e20	0.0029229
166	0xbca50ce8	-0.020147756
167	0xbadd54c0	-0.0016886219
168	0x3d77ba72	0.060480542
169	0x3ce70ebc	0.028205268
170	0x3caf8354	0.021424927
171	0x3d089bda	0.033351757
172	0xbd1d4133	-0.038392257
173	0xbd7aaa08	-0.06119731
174	0x3c44aa98	0.012003563
175	0x3d7fbe7a	0.062437512
176	0x3cf033f0	0.02932164
177	0xbb60ade0	-0.0034283325
178	0x3b903470	0.0044007823
179	0xbd1c0414	-0.038089827
180	0xbd253606	-0.040334724
181	0x3bd05860	0.0063581914
182	0x3d81b903	0.06334116
183	0xbc9d2ace	-0.01918545
184	0x3d88ef6f	0.06686293
185	0xbbc17af0	-0.005904548
186	0xbc8e7c40	-0.017393231
187	0x3cfdb4d4	0.030970015
188	0xbd8c3197	-0.06845396
189	0xbd078a53	-0.0330909
190	0x3d67d352	0.056598015
191	0xbd19acbf	-0.03751826
192	0xbd532e96	-0.0515581
193	0x3ce2d4c0	0.027689338
194	0xbd58ee9b	-0.052961927
195	0x3d193962	0.03740824
196	0xbd2118f4	-0.039330438
197	0xbd2d35e0	-0.042287707
198	0xbcf5ca4a	-0.030003686
199	0x3d2052e6	0.039141558
200	0xbc944985	-0.018101463
201	0xbb17a040	-0.0023136288
202	0x3cf68042	0.030090455
203	0x3d016988	0.031594783
204	0x3bf79768	0.007555891
205	0x3c4d4380	0.0125283
206	0x3d3030c2	0.04301525
207	0xbd4b41df	-0.049623366
208	0x3c42f0b2	0.011898207
209	0x3b9de5b3	0.004818642
210	0xbd833dac	-0.06408247
211	0x3b216d75	0.0024631892
212	0x3d245bc6	0.040126584
213	0xbd0690a0	-0.03285277
214	0x3c9b89e3	0.018986648
215	0xbc5b8b24	-0.013399873
216	0x3c826a10	0.015919715
217	0x3d68c0d5	0.056824524
218	0xbc91ff83	-0.017822033
219	0x3cc544f2	0.024080727
220	0x3c6cfb93	0.014464277
221	0xbc325d6a	-0.010886529
222	0xbc7723b0	-0.015084192
223	0x3d3009f2	0.042978235
224	0x3d7dd7a1	0.061973218
225	0xbd5c7bd4	-0.05382903
226	0x3c2fe6a0	0.010736138
227	0xbd894b50	-0.06703818
228	0xbd1740fc	-0.03692721
229	0xbd25da74	-0.040491536
230	0xbc2b2713	-0.010446328
231	0xbd0f3440	-0.03496194
232	0xbcc3888b	-0.02386882
233	0x3d3f152a	0.046651043
234	0xbd6a2019	-0.057159517
235	0xbd327a43	-0.04357363
236	0x3d81c757	0.06336849
237	0x3d0667e8	0.032813936
238	0x3d06d9ed	0.032922674
239	0xbd5def46	-0.054183267
240	0xbd8ab00e	-0.06771861
241	0xbd61c882	-0.05512286
242	0xbd0d9241	-0.034563307
243	0x3d6273b1	0.055286113
244	0x3d072ed5	0.033003647
245	0x3d73e96f	0.05954879
246	0x3b50bb40	0.003184989
247	0xbca4b279	-0.020104634
248	0xbd8b524a	-0.06802805
249	0x3d0f92fb	0.03505228
250	0x3c814a61	0.015782537
251	0xbd9cbc7c	-0.07653138
252	0x3cef7e50	0.029235035
253	0x3ca46ab4	0.020070411
254	0x3cdd16f1	0.026988478
255	0x3c96f9b0	0.018429607

bias f4 [200]
0	0x3d132e6c	0.035932943
1	0xbbee8289	-0.0072787446
2	0x3d56bab4	0.052424148
3	0xbd4eba6a	-0.050470747
4	0x3c0b1d69	0.008490899
5	0xbd508a04	-0.050912872
6	0x3d62de48	0.055387765
7	0xbce702bd	-0.028199548
8	0xbcc01fb2	-0.023452614
9	0x391e6000	0.00015103817
10	0x3d398f6b	0.04530279
11	0xbd96e14f	-0.07367193
12	0xbd5e5342	-0.05427862
13	0x3b44ec25	0.003004798
14	0x3d02238e	0.03177219
15	0xbd8a4f63	-0.06753423
16	0xbbdcd402	-0.0067391405
17	0x3c848c9f	0.016180335
18	0xbb13be3f	-0.0022543815
19	0x3d0c4ef9	0.034255
20	0x3d144772	0.036200948
21	0x3d44e8a9	0.048073445
22	0x3c27a3e0	0.010231942
23	0x3bba8dd1	0.0056931754
24	0xbd0cfee7	-0.03442278
25	0x3cbd9a00	0.023144722
26	0xbd8d8df0	-0.06911838
27	0x3ce5b244	0.028039105
28	0x3cae45d8	0.021273538
29	0x3da598b1	0.08085764
30	0x3d0dfd75	0.034665544
31	0x3cb08a09	0.021550195
32	0xbcbe7bfc	-0.02325248
33	0x3ceedf61	0.02915925
34	0x3d045f95	0.032317717
35	0x3d47e98b	0.04880671
36	0x3d5bc7ca	0.05365733
37	0x3c5e157c	0.013554927
38	0x3cbcc165	0.023041436
39	0x3d0a7734	0.033805087
40	0xbc3df3d6	-0.01159378
41	0xbcbec5c4	-0.023287661
42	0x3d06c68f	0.032904204
43	0xbd10ad5f	-0.03532159
44	0xbcb275c3	-0.021784669
45	0xbd16fdf8	-0.036863297
46	0x3cf5805a	0.02996843
47	0xbd9a0b76	-0.07521717
48	0xbd3233b2	-0.04350633
49	0x3cfbba45	0.030728469
50	0x3c647126	0.013942992
51	0xbd7ea92b	-0.06217305
52	0xbc53d305	-0.012928729
53	0x3d585bcd	0.052821923
54	0xbbca915e	-0.00618188
55	0x3c691f1b	0.0142286075
56	0xba301c80	-0.0006718114
57	0xbd58b2f5	-0.05290504
58	0xbb3ea7ce	-0.0029091719
59	0x3d551520	0.0520221
60	0xbd9c9c32	-0.076469794
61	0xbd8411d2	-0.064487115
62	0xbcff1f52	-0.031142864
63	0x3d01acb3	0.03165884
64	0xbd993270	-0.07480323
65	0x3d412d49	0.047162328
66	0x3d588655	0.052862484
67	0x3d0322ff	0.032015797
68	0x3cd47c6e	0.025938239
69	0xbcaa70fd	-0.02080583
70	0x3c342895	0.010996004
71	0x3d772527	0.060338166
72	0xbd19a867	-0.037514117
73	0x3d0a9fe7	0.0338439
74	0x3ca48265	0.020081708
75	0x3d763e23	0.060117852
76	0xbd164238	-0.036684245
77	0xbd562ae7	-0.05228701
78	0x3c5ef5ef	0.01360844
79	0xbd2020e1	-0.039093856
80	0xbd74d017	-0.059768762
81	0x3cae6274	0.02128718
82	0xbd25fc61	-0.04052389
83	0xbcce6d26	-0.02519853
84	0xbd8cfe76	-0.06884472
85	0x3d944fc4	0.072417766
86	0xbc44661f	-0.011987238
87	0x3d179718	0.03700933
88	0xbd1577cb	-0.036491197
89	0xbd982f42	-0.07430889
90	0x3d263d30	0.040585697
91	0xbd8d714e	-0.06906377
92	0xbc9761ae	-0.018479194
93	0x3c3bf5ff	0.011472224
94	0x3d5c3ea2	0.05377067
95	0x3ce06138	0.027390108
96	0x3cbc0a27	0.02295406
97	0xbc3b5c2d	-0.011435551
98	0xbd6f4399	-0.058414076
99	0x3d59a9ca	0.05314044
100	0xbb8c757a	-0.0042864652
101	0xbd0dbb2c	-0.03460233
102	0xbd6097ad	-0.05483215
103	0xbd6cbbd2	-0.057796307
104	0x3d1df12f	0.03856009
105	0x3d254fc0	0.04035926
106	0xbd52e8e8	-0.051491648
107	0xbd8cb38c	-0.06870183
108	0xbd9b49d3	-0.0758244
109	0xbd08e617	-0.033422556
110	0xbc4c0cb2	-0.012454199
111	0x3d3bc039	0.045837615
112	0xbcba691d	-0.0227552
113	0x3c341df2	0.010993468
114	0x3d89ec43	0.067345165
115	0xbd36ab2b	-0.044596832
116	0x3c956aee	0.018239465
117	0x3d4dbb21	0.05022729
118	0xbba1f060	-0.004941985
119	0xbd7877b0	-0.060661018
120	0xbda43dcf	-0.080196016
121	0x3c7fb23c	0.015606459
122	0xbd5e7a9c	-0.05431615
123	0x3e2dc486	0.16969499
124	0x3cdcdf25	0.026961872
125	0xbd0ae650	-0.03391105
126	0xbd731c89	-0.059353385
127	0x3d78a40c	0.060703322
128	0xbd322f17	-0.04350194
129	0xbbbd80ff	-0.0057832
130	0x3c95e885	0.01829935
131	0xbbcee456	-0.006313841
132	0x3c43471a	0.011918807
133	0xbc085c5e	-0.008322803
134	0xbd072c93	-0.033001494
135	0x3d5230d2	0.05131609
136	0xbbf20c27	-0.0073867026
137	0x3cafe4e1	0.021471443
138	0xbbeb2c2c	-0.0071768966
139	0xbd4b86cf	-0.04968911
140	0xbdb21615	-0.08695618
141	0xbbe9cdc8	-0.0071351267
142	0x3ca968b4	0.02067981
143	0x3c9eff12	0.019408736
144	0xbd3606d3	-0.0444401
145	0x3d6181cb	0.05505542
146	0xbdb19730	-0.08671415
147	0xbd29186e	-0.041283064
148	0xbd993383	-0.07480528
149	0xbd6c4878	-0.0576863
150	0xbb9893d8	-0.004656296
151	0x3d139773	0.036033105
152	0x3d06b907	0.0328913
153	0xbd106a7d	-0.035257805
154	0xbd93f84c	-0.07225093
155	0x3cba3d7b	0.022734394
156	0xbc801bf2	-0.015638325
157	0xbc31015e	-0.010803549
158	0xbc688a70	-0.014193162
159	0xbd05e88c	-0.032692477
160	0xbc7ae325	-0.015312945
161	0xbcdc3d46	-0.026884686
162	0x3d34a1df	0.044099685
163	0xbd51deaa	-0.05123774
164	0xbd8429ff	-0.064533226
165	0xbc8288d4	-0.015934385
166	0xbd53db4d	-0.051722813
167	0xbc9df9ca	-0.019284148
168	0xbd1c1630	-0.038107097
169	0xbd0faa05	-0.035074253
170	0xbd8a88d2	-0.06764378
171	0x3c1a0ebd	0.009402928
172	0xbd3f9299	-0.046770666
173	0xbca1161a	-0.01966386
174	0xbd19ac9e	-0.037518136
175	0xbd654a40	-0.055979013
176	0xbd58bd9e	-0.052915208
177	0xbb817b20	-0.003951445
178	0xbd8d95b7	-0.069133215
179	0xbd6978c0	-0.05699992
180	0xbd504360	-0.050845504
181	0x3d6cd2dc	0.05781828
182	0xbb2b1980	-0.0026107728
183	0x3cbb0e04	0.022833832
184	0xba2e9879	-0.00066602934
185	0xbd79cc5f	-0.06098592
186	0xbac8b408	-0.0015312443
187	0x3ca688d8	0.020328924
188	0xbcb58f2e	-0.022163
189	0xbc8b90b1	-0.017036768
190	0xbd872299	-0.06598396
191	0xbd78497f	-0.060616966
192	0xbd7e0d77	-0.06202456
193	0xbc4ccfb1	-0.012500689
194	0xbd89bd0f	-0.06725513
195	0xbd2a7eb5	-0.041624743
196	0xb8aa6b55	-8.126224e-05
197	0xbd1188a5	-0.035530705
198	0xbcc62002	-0.024185184
199	0xbca03218	-0.019555137

weight f4 [200, 200]
0	0x3d8c830d	0.068609335
1	0xbcf87dce	-0.030333426
2	0x3ceb50f0	0.028725117
3	0xbd82de54	-0.06390062
4	0x3d45995c	0.048241958
5	0x3d56aa40	0.052408457
6	0xbd26bcbc	-0.040707335
7	0x3d224af4	0.039622262
8	0x3b5b8920	0.003349848
9	0x3c271800	0.010198593
10	0xbcd6356c	-0.02614852
11	0x3cc16250	0.02360645
12	0xbd85338a	-0.06503971
13	0xbc856a9e	-0.01628619
14	0xbd451cc7	-0.048123147
15	0xbcf52857	-0.029926462
16	0xbcadacf2	-0.02120063
17	0xbd55614a	-0.052094735
18	0x3d59d28f	0.05317932
19	0xbd42d646	-0.04756763
20	0xbce98160	-0.028504074
21	0xbc9c754a	-0.019098897
22	0x3ca086f8	0.019595608
23	0xbbb11c70	-0.0054050013
24	0x3ce27d72	0.027647708
25	0xbd100330	-0.03515929
26	0x3d83b053	0.064301156
27	0xbd413360	-0.047168136
28	0xbd8224e2	-0.06354691
29	0xbd972498	-0.073800266
30	0x3d24888c	0.040169284
31	0xbd987428	-0.0744403
32	0xbd3877ea	-0.045036234
33	0xbd88d903	-0.06682017
34	0x3b9832db	0.0046447343
35	0xbd2bf5d8	-0.0419825
36	0xbdaa9d44	-0.08330777
37	0x3ce218f4	0.02759979
38	0x3d51a546	0.051183008
39	0x3cea2ac0	0.028584838
40	0xbd19e69f	-0.037573453
41	0xbd5fb7e3	-0.054618727
42	0xbd836324	-0.06415394
43	0xbd2ad57a	-0.041707493
44	0xbd0a86bb	-0.033819895
45	0x3cf93a0e	0.03042319
46	0xbc0598f8	-0.008154146
47	0xbac75dc0	-0.0015210435
48	0xbb0cc3c0	-0.002147898
49	0xbca4536d	-0.020059312
50	0xbc46c840	-0.012132704
51	0xbd1be057	-0.038055744
52	0xbd423945	-0.047417898
53	0xbc2b4f29	-0.010455885
54	0xbd471f93	-0.048614096
55	0x3bdb91a0	0.0067007095
56	0x3d854fd1	0.065093644
57	0x3cb8af5c	0.022544555
58	0x3c92e9c9	0.017933743
59	0xbcd34dba	-0.025793899
60	0xbd75ad21	-0.05997956
61	0xbd730a4b	-0.059335988
62	0xbb84e5b0	-0.004055701
63	0x3c90c7b7	0.017673356
64	0xbc17d86c	-0.009267908
65	0x3d17f206	0.037096046
66	0xbd36b515	-0.044606287
67	0xbd4734ab	-0.048634212
68	0xbc0cc664	-0.008592222
69	0x3d6f72c8	0.058459073
70	0x3d5fda96	0.05465182
71	0xbd388946	-0.04505279
72	0x3aa00e4b	0.0012211291
73	0x3cf85c9f	0.030317603
74	0xbc6b7934	-0.014372159
75	0xbd6599ac	-0.056054756
76	0x3d59c302	0.05316449
77	0xbd6e0dd3	-0.058118653
78	0xbd386a84	-0.045023456
79	0xbb024728	-0.0019878838
80	0xbd3d1ef3	-0.046172094
81	0xbcd85fac	-0.026412807
82	0xbd015677	-0.0315766
83	0xbb74d97f	-0.0037361083
84	0xbd197b65	-0.037471194
85	0x3a264579	0.00063427497
86	0xbd7798f3	-0.060448598
87	0x3b9dc5f0	0.0048148558
88	0x38af6400	8.363277e-05
89	0x3d627502	0.05528737
90	0xbd2b0922	-0.041756757
91	0x3d29faa4	0.041498795
92	0xbcdf8ee4	-0.027289815
93	0xbd02c66b	-0.031927507
94	0x3d203de8	0.03912154
95	0xbd876b0d	-0.06612215
96	0xbd7df6c0	-0.062002897
97	0xbd5fba39	-0.054620955
98	0xbd6a26fc	-0.057166085
99	0xbd4f9109	-0.050675426
100	0xbd12b7ab	-0.03581969
101	0xbda83740	-0.08213663
102	0x3c17d511	0.009267108
103	0xbd541f74	-0.05178781
104	0x3d8b8b37	0.068136625
105	0xbc6708a4	-0.014101181
106	0xbd6392a3	-0.055559766
107	0xbd36c024	-0.044616833
108	0xbd7048d4	-0.058663204
109	0x3d688906	0.0567713
110	0x3d300de2	0.04298199
111	0xbd3fe3e3	-0.04684819
112	0x3aa7f21b	0.0012813242
113	0x3d07af14	0.033125952
114	0xbd7cf044	-0.061752573
115	0xbbba7fb0	-0.005691491
116	0x3cb54282	0.02212644
117	0x3d2db45e	0.04240834
118	0x3d8d8917	0.069109134
119	0xbca66790	-0.020313054
120	0x3c2ddef0	0.0106122345
121	0xbcaf4642	-0.021395806
122	0x3c5b1970	0.013372764
123	0x3b5b8500	0.0033496022
124	0xbc8bb70a	-0.017055053
125	0x3cbc4714	0.022983111
126	0xbceac744	-0.02865947
127	0x3d812609	0.06306083
128	0xbcd9dc5c	-0.026594333
129	0xbd68971f	-0.056784745
130	0x3c8f3cb2	0.017484996
131	0x3c0f1da8	0.008735098
132	0xbccb7d3f	-0.024839995
133	0xbd0bd1b5	-0.03413554
134	0xbd336e1e	-0.043806188
135	0xbc7fc800	-0.015611649
136	0x3c956acc	0.018239401
137	0x3c8fe0f9	0.01756333
138	0x3d028e54	0.031874016
139	0x3d246fa4	0.04014553
140	0x3c8c94b4	0.01716075
141	0x3ba2dac0	0.0049699247
142	0xbd65dac9	-0.056116853
143	0xbd164d17	-0.036694612
144	0xbd6163a1	-0.055026654
145	0x3d2d50b8	0.042313308
146	0xbd6d8937	-0.057992186
147	0xbc2e3aa6	-0.0106341
148	0x3d4b8010	0.049682677
149	0x3cd4caa0	0.025975525
150	0xbd2daf56	-0.04240354
151	0xbc7aad4d	-0.015300107
152	0x3cb3e05c	0.021957569
153	0x3d46b21e	0.04850971
154	0x3d1c1f74	0.038115934
155	0xbd01fac2	-0.031733282
156	0x3b571560	0.0032819137
157	0xbdc31f7d	-0.0952749
158	0x3cea3fb4	0.02859483
159	0x3b234d40	0.002491787
160	0xbd89a630	-0.06721151
161	0xbd379825	-0.04482283
162	0x3bce88e8	0.0063029416
163	0x3d29e80c	0.041481063
164	0x3d9c01f3	0.07617559
165	0xbd8aca1b	-0.0677683
166	0xbcd55b68	-0.026044562
167	0xbcff4b60	-0.031163871
168	0xbd19ec2c	-0.037578747
169	0xbca354e4	-0.01993794
170	0xbd3fabcb	-0.046794694
171	0xbd56e2b8	-0.05246231
172	0x3ca78cd4	0.020452894
173	0x3d14b3ee	0.036304407
174	0x3c7d9b38	0.015478902
175	0xbcf3de83	-0.029769188
176	0xbc751954	-0.014959652
177	0xbd47f54a	-0.04881791
178	0xbd1b6c06	-0.037944816
179	0xbd8b89fe	-0.06813429
180	0xbd131062	-0.035904296
181	0xbcce3830	-0.025173277
182	0xbd3ca7f6	-0.046058618
183	0x3c61d9b8	0.013784818
184	0x3d89f2ab	0.06735738
185	0x3d7d1706	0.061789535
186	0xbcec13a4	-0.02881796
187	0x3cb652f2	0.022256348
188	0x3d39dcd8	0.04537663
189	0xbc15599b	-0.009115602
190	0x3d1f9b8c	0.0389667
191	0x3cbe4c4b	0.023229739
192	0x3cb100e4	0.02160687
193	0xbd813979	-0.0630979
194	0xbd4f1fa6	-0.05056729
195	0xbd1d214f	-0.038361844
196	0xbd50f4ca	-0.0510147
197	0x3b194700	0.0023388267
198	0x3c6b40d8	0.014358722
199	0x3d9ddcdf	0.077081434
200	0xbca51ca2	-0.020155255
201	0x3d3c6bb7	0.046001162
202	0x3d6e6196	0.058198534
203	0x3d25f955	0.040520985
204	0xbd7881c8	-0.060670644
205	0xbd1232ee	-0.0356931
206	0xbd2decfe	-0.04246234
207	0x3c0634e6	0.008191323
208	0x3c78cae0	0.015185088
209	0x3d1f6b62	0.038920768
210	0xbd8cde94	-0.06878391
211	0x3d2a41bb	0.04156659
212	0x3a455288	0.0007527252
213	0xbce08047	-0.027404917
214	0x3c7adc0e	0.015311254
215	0xbd0d9711	-0.034567896
216	0x3d3d9272	0.04628224
217	0x3ce5294b	0.027973792
218	0xbd5ac2ee	-0.053408556
219	0xbd8f4d73	-0.06997194
220	0xbd5af843	-0.053459417
221	0xbd0a2491	-0.03372628
222	0xbd892b66	-0.06697731
223	0xbd5c6eed	-0.053816725
224	0x3c145280	0.009052873
225	0x3d81517f	0.06314372
226	0x3d3d83f3	0.046268415
227	0xbd90b5fc	-0.07065961
228	0xbd108e19	-0.035291765
229	0xbd88c9b0	-0.06679094
230	0xbda9966c	-0.08280644
231	0x3d11f4ea	0.03563396
232	0x3cd95235	0.026528457
233	0x3c49c4f4	0.012315024
234	0xbd227212	-0.039659567
235	0x3ca0de30	0.019637197
236	0xbc58a413	-0.013222712
237	0x3d180018	0.037109464
238	0xbd554034	-0.052063182
239	0x3d4f7e30	0.05065745
240	0x3d0aab32	0.03385467
241	0xbd4d75b5	-0.050161082
242	0x3cb6a1e2	0.022293989
243	0x3d0c2b8a	0.03422121
244	0x3b584543	0.0033000268
245	0xbd0be61c	-0.034154996
246	0x3d3314fc	0.043721184
247	0xbd007f33	-0.031371307
248	0xbd3b43a7	-0.045718815
249	0x3cad3188	0.021141782
250	0x3d121fe4	0.035674945
251	0xbd9a4792	-0.07533182
252	0xbcacb53c	-0.021082513
253	0x3d730d6c	0.059338972
254	0xbcf3a24d	-0.029740477
255	0x3d169194	0.036759928

bias f4 [200]
0	0xbd9cac75	-0.07650081
1	0x3ad165a5	0.0015975727
2	0xbd2ac050	-0.04168731
3	0x3e4cf975	0.20017035
4	0xbb0408f0	-0.0020146929
5	0x3c514940	0.012773812
6	0xbd2d844f	-0.042362507
7	0x3b8cab31	0.0042928685
8	0x3d47e67d	0.048803795
9	0x3c8f431d	0.017488057
10	0xbd8227e0	-0.06355262
11	0xbd83e58f	-0.06440269
12	0xbd1acaec	-0.037791178
13	0xba5d11b4	-0.0008433119
14	0xbd68b4fa	-0.056813218
15	0xbd2921f5	-0.04129215
16	0xbc71d6be	-0.014760671
17	0xbafd8deb	-0.0019344663
18	0xbda11887	-0.07866006
19	0x3e845d25	0.25852314
20	0xbd658c06	-0.05604174
21	0xbd4cbcca	-0.04998473
22	0x3e238267	0.15967713
23	0xbd64a7e5	-0.05582418
24	0xbc8b616a	-0.017014224
25	0xbc61372c	-0.013746064
26	0xbc41bd7f	-0.011824965
27	0xbcec7bf2	-0.028867695
28	0x3a538197	0.00080683216
29	0xbd7d0b56	-0.06177839
30	0x3bbc9b2b	0.005755802
31	0xbc75f2db	-0.015011515
32	0xbc887aa8	-0.01666005
33	0xbd2cf0b4	-0.04222174
34	0xbd477535	-0.04869576
35	0xbd6de46f	-0.05807918
36	0x3a330a01	0.0006829799
37	0xbdb60dd2	-0.08889355
38	0x3d93994d	0.07206974
39	0xbbb88906	-0.005631569
40	0xbd082585	-0.033238906
41	0x3bfff806	0.007811549
42	0x3cc8fb0c	0.024533771
43	0x3e07aed1	0.13250281
44	0xbb8a946e	-0.00422912
45	0xbd324a65	-0.04352798
46	0xbc67eafe	-0.014155148
47	0xbcd94b2a	-0.026525099
48	0xbc349fba	-0.01102441
49	0xbd0a3ef3	-0.03375144
50	0x3c3913aa	0.011296192
51	0xbd07fe38	-0.033201426
52	0x3e456338	0.1927613
53	0xbc4ce3e2	-0.012505503
54	0xbd5822b3	-0.052767467
55	0xbd00ca9f	-0.031443235
56	0xbbede0d1	-0.007259466
57	0xbd8c2b4d	-0.068441965
58	0x3e20532f	0.15656732
59	0xbd84719b	-0.06466981
60	0xbd59e53a	-0.053197123
61	0x3cfaa03d	0.030593986
62	0xbcda78d9	-0.026668953
63	0x3cf3b5d2	0.029749785
64	0x3d81380e	0.0630952
65	0xbcdc13bd	-0.02686488
66	0xbd39c817	-0.045356836
67	0xbd81a4ad	-0.063302375
68	0xbd6a3929	-0.05718342
69	0x3ca68a57	0.020329637
70	0xbcdcd95c	-0.026959114
71	0x39d02a21	0.0003970424
72	0xbc5f7a7b	-0.013640041
73	0x3bbf6cae	0.005841813
74	0xbdbadf37	-0.09124606
75	0xbc072985	-0.008249645
76	0xbad0cc29	-0.0015929985
77	0xbcc52460	-0.024065197
78	0x3c061bf8	0.008185379
79	0xbd4c2957	-0.049844112
80	0xbc69c731	-0.014268682
81	0x3dfbdc30	0.12297857
82	0x3e4d92ff	0.20075606
83	0x3de344ad	0.11097083
84	0x3dc0687e	0.0939493
85	0xbd332744	-0.04373862
86	0x3c78b93f	0.015180885
87	0xbd375798	-0.04476127
88	0xbbbeee33	-0.0058267354
89	0xbca873e6	-0.020563077
90	0x3c2e5344	0.010639969
91	0xbd8528a5	-0.06501893
92	0x3c026414	0.007958431
93	0xbc8fc331	-0.01754913
94	0xbcf456a8	-0.029826477
95	0x3b228689	0.0024799427
96	0xbcd33f7e	-0.025787111
97	0xbd2c3fda	-0.04205308
98	0xbc951b09	-0.018201368
99	0xbd1fab73	-0.038981866
100	0xba2bb64c	-0.00065502967
101	0xbda0700c	-0.07833871
102	0xbd26ae34	-0.040693477
103	0xbd9ed61c	-0.07755682
104	0x3e367194	0.17816764
105	0xbde7fb2f	-0.11327206
106	0xbd2a16a5	-0.0415255
107	0xbd500361	-0.050784472
108	0xbd95b6b6	-0.0731024
109	0xbd853a41	-0.06505252
110	0xbd96dfe3	-0.07366922
111	0xbd876656	-0.06611316
112	0xbbc1a365	-0.0059093707
113	0xbacb94c7	-0.001553201
114	0xbdbeea59	-0.09322042
115	0xbcf9c097	-0.030487342
116	0xbd3e0ddf	-0.046399947
117	0xbd2dd910	-0.042443335
118	0xbd3248ad	-0.04352634
119	0xbca307a0	-0.019901097
120	0xbd34f3a0	-0.04417765
121	0x3df9b9f5	0.121936716
122	0x3e158883	0.14602856
123	0xbc692368	-0.014229633
124	0xbd198741	-0.037482504
125	0xbca20f24	-0.01978261
126	0xbd636685	-0.055517692
127	0x3dda1734	0.10648957
128	0x3be17309	0.0068801683
129	0xbd78c4c1	-0.060734514
130	0x3db5305c	0.088471144
131	0xbd0f3c1e	-0.03496944
132	0xbb8c0da3	-0.0042740866
133	0xbcf75507	-0.030191911
134	0xbac309fc	-0.0014880295
135	0xba4a4c88	-0.00077170925
136	0xbdb60185	-0.088870086
137	0xbc466a3c	-0.012110289
138	0xbc4bdaa9	-0.012442269
139	0xbcd1b414	-0.025598563
140	0x3db6185f	0.08891367
141	0xb8af1eac	-8.350363e-05
142	0xbcf44b96	-0.029821198
143	0x3c65657f	0.014001249
144	0x3bc03370	0.005865507
145	0xbc2eabcc	-0.010661077
146	0x3daced23	0.08443668
147	0xbd8a68a4	-0.0675824
148	0xbd2944b2	-0.04132528
149	0x3cc2341d	0.02370649
150	0x393b5d8d	0.0001786856
151	0x3c6d68c1	0.014490307
152	0x3c96b943	0.018398887
153	0xbd14ad66	-0.036298178
154	0xbd166108	-0.03671363
155	0xbd662b96	-0.05619391
156	0x3ca3b257	0.0199825
157	0x3d4fb737	0.050711837
158	0x3d8bac1e	0.06819938
159	0xbd92a033	-0.07159462
160	0xbd88077b	-0.06642052
161	0x3bc3a92f	0.005971096
162	0x3e643271	0.22284867
163	0xbc003222	-0.007824453
164	0x3c29c3ba	0.010361606
165	0x3bc762aa	0.0060847597
166	0x3cc574ec	0.024103604
167	0xbccc5f48	-0.024947777
168	0x3b908774	0.0044106785
169	0x3d88413b	0.06653067
170	0x3d01cd0e	0.031689696
171	0x3e01a996	0.12662348
172	0xbdac8a62	-0.08424832
173	0xbd726aa4	-0.05918373
174	0xbd789267	-0.060686495
175	0x3dab78fc	0.08372685
176	0xbb4a7600	-0.0030893087
177	0xbc03c3de	-0.008042304
178	0xbd3c92d6	-0.04603847
179	0xbd56db53	-0.052455258
180	0x39d56615	0.00040702583
181	0x3c8a2def	0.016867606
182	0xbd14cb76	-0.036326848
183	0x3d178c46	0.03699901
184	0x3b0f2d62	0.0021847119
185	0x3e19b703	0.1501122
186	0xbd0b8929	-0.034066353
187	0xbcf65553	-0.030069983
188	0xbdbdc065	-0.09265212
189	0xbc86fa3b	-0.016476741
190	0x3da537b7	0.080672674
191	0xba11efb5	-0.000556703
192	0xbd8dcf79	-0.06924338
193	0xbc81dfef	-0.01585385
194	0xbc6bfe74	-0.014403928
195	0xbd3d6966	-0.046243094
196	0xbcac5c89	-0.021040218
197	0x3d04a81e	0.03238689
198	0x3d571db1	0.05251855
199	0xbdb7a071	-0.08966149

weight f4 [2, 200]
0	0xbcb8ea32	-0.02257261
1	0x3d4d396a	0.050103582
2	0x3d49a626	0.049230717
3	0xbdc57dac	-0.09643111
4	0xbd082db3	-0.033246707
5	0x3c8d9e0b	0.017287275
6	0x3d117d58	0.035519928
7	0xbcb22e59	-0.021750616
8	0xbda803b9	-0.08203835
9	0x3c2c08ab	0.0105001135
10	0x3cbfdbcc	0.023420237
11	0x3c19b001	0.0093803415
12	0x3c95b912	0.018276725
13	0x3d2e83f7	0.04260632
14	0x3c1ebca5	0.009688531
15	0xbd81d61a	-0.06339665
16	0xbc533a9a	-0.01289239
17	0x3d253348	0.04033211
18	0xbc3fa60b	-0.011697303
19	0xbdc4b7d9	-0.09605379
20	0x3d07b48e	0.033131175
21	0xbceaef3d	-0.02867853
22	0xbd791a3c	-0.060816035
23	0xbd1bfdf6	-0.038083993
24	0x3d6a18e2	0.057152636
25	0xbcb44009	-0.02200319
26	0x3d2c5707	0.042075183
27	0x3c1decde	0.009638993
28	0x3d774234	0.06036587
29	0xbd5aa24e	-0.053377442
30	0xbcb72711	-0.022357496
31	0x3c2ff9a6	0.010740673
32	0xbc46748c	-0.012112748
33	0x3b793b20	0.0038029626
34	0xbcfdcd04	-0.030981548
35	0x3d7eadea	0.062177576
36	0x3d220b11	0.039561335
37	0xbd1bc3fc	-0.038028702
38	0xbcc445d8	-0.023959085
39	0x3c7b37a8	0.015333094
40	0x3d206f25	0.039168496
41	0x3cc7e64f	0.024401812
42	0xbc13613c	-0.00899535
43	0xbd085bf4	-0.03329082
44	0x3cbb09d8	0.022831842
45	0xbc0aa5da	-0.008462394
46	0x3cd4677f	0.025928257
47	0x3d3d8ff2	0.046279855
48	0x3d59b79a	0.05315361
49	0x3c97a7ea	0.018512685
50	0x3ba0885d	0.0048990683
51	0x3cdc9f1e	0.026931342
52	0xbdd2c6b4	-0.10291806
53	0x3c9c0fee	0.019050565
54	0xbbce638a	-0.006298487
55	0x3d1a569f	0.037680265
56	0x3d11269e	0.03543722
57	0xbb99b454	-0.0046906862
58	0xbdc183a2	-0.09448935
59	0xbc39f4b5	-0.011349847
60	0x3cd916ba	0.026500095
61	0x3c377cc8	0.011199184
62	0xbc2a4470	-0.010392293
63	0xbcaa6044	-0.020797856
64	0xbd1b66ba	-0.037939765
65	0x3d85ac65	0.06527022
66	0x3ca351bf	0.01993644
67	0x3d2345b2	0.03986139
68	0xbcfc132f	-0.030770866
69	0x3c8858aa	0.01664384
70	0x3cc00161	0.023438158
71	0x3d05b175	0.03263994
72	0x3cd79f16	0.026320975
73	0x3bceaa1f	0.006306901
74	0xbd6fd211	-0.058549944
75	0x3b4f1446	0.0031597777
76	0x3d6c229c	0.057650194
77	0x3d65ff2b	0.05615155
78	0xbd3a4bc7	-0.045482423
79	0xbd2ffaee	-0.042963915
80	0x3cb0df42	0.021590833
81	0xbd7d78f9	-0.061882947
82	0xbdb26eea	-0.087125614
83	0xbcf07dd7	-0.02935688
84	0xbc8210fe	-0.015877243
85	0x3c8d12d0	0.017220885
86	0x3bc8e91e	0.0061313054
87	0x3ccaa793	0.024738109
88	0x3920c473	0.00015331972
89	0xbbe9703f	-0.0071239765
90	0x3cc3b54a	0.023890156
91	0x3b9c5e94	0.004772017
92	0x3d166b79	0.036723588
93	0x3ceb21de	0.028702673
94	0xbc745aee	-0.014914257
95	0x3d5eb3ef	0.054370817
96	0x3ca9f9d7	0.020749016
97	0xbd0c4b3a	-0.03425143
98	0xbd3f869e	-0.04675924
99	0x3d1caa29	0.038248215
100	0x3d3d167e	0.04616403
101	0xbc952ca2	-0.01820976
102	0x3cb58da6	0.02216227
103	0xbd03b81c	-0.032158002
104	0xbdb033ae	-0.08603607
105	0xbc7e9299	-0.015537881
106	0x3d46f366	0.048571967
107	0x39b9d6bd	0.00035445942
108	0xbd429d6d	-0.047513414
109	0x3bec64ba	0.007214156
110	0x3cefd055	0.029274145
111	0xbd2f0cda	-0.042736866
112	0x3d5b6db6	0.053571425
113	0x3d2198e8	0.039452463
114	0xbd11234d	-0.035434056
115	0xbd51a927	-0.051186707
116	0x3ce7de60	0.028304279
117	0x3d935e84	0.07195762
118	0x3c01c64a	0.007920811
119	0xbca25f7c	-0.019820921
120	0x3cb23303	0.02175284
121	0xbd3293a8	-0.043597847
122	0xbd60cf55	-0.054885227
123	0xb9b19b88	-0.0003387595
124	0xbca4f603	-0.020136839
125	0x3d4c84bb	0.04993127
126	0x3c805b7b	0.015668621
127	0xbc9f06dd	-0.019412452
128	0xbd3a006a	-0.04541055
129	0x3d847e4e	0.06469403
130	0xbd1c0468	-0.03809014
131	0x3d38c87d	0.045113076
132	0x3d0cdfca	0.03439311
133	0x3cf167fa	0.029468525
134	0x3cc78381	0.024354698
135	0x3c14b443	0.009076181
136	0x3d11a024	0.035553113
137	0x3d58df3b	0.052947264
138	0xbd5fbf34	-0.054625705
139	0x3ca4734e	0.020074513
140	0xbd3d708a	-0.046249904
141	0x3d67c525	0.056584496
142	0x38f6ae60	0.00011762674
143	0xbd0f1d55	-0.034940083
144	0xbd40a8b7	-0.0470359
145	0x3d495363	0.04915179
146	0xbc8b51e5	-0.017006824
147	0xbb979a9d	-0.0046265856
148	0x3c5b210b	0.013374577
149	0x3c9a078e	0.01880243
150	0x3c39780c	0.011320125
151	0xbc720c3e	-0.014773427
152	0xb9c232ec	-0.00037040503
153	0xbd6712da	-0.056414463
154	0xbd0e861a	-0.034795858
155	0x3b82a64c	0.0039871093
156	0x3cec8927	0.028873993
157	0xbc9720de	-0.01844829
158	0xbc3bc959	-0.011461579
159	0xbcb73126	-0.022362303
160	0xbc67def1	-0.0141522745
161	0xbcb83baa	-0.022489388
162	0xbd785175	-0.06062456
163	0x3cb79e48	0.022414342
164	0x3ca1f0ee	0.019768205
165	0x3d1ee4f8	0.03879258
166	0x3c9f789b	0.019466689
167	0x3bb33418	0.0054688565
168	0xbccb0cf7	-0.024786456
169	0xbd3d5bc3	-0.04623009
170	0x3b9c50fc	0.0047703963
171	0xbd33f972	-0.04393906
172	0x3ac429c7	0.0014966064
173	0x3d8cfff6	0.06884758
174	0x3cfa669d	0.030566508
175	0xbd66bc20	-0.056331754
176	0x3d86e601	0.065868385
177	0xbc96063d	-0.018313522
178	0xbd2a2549	-0.041539464
179	0xbcb59691	-0.022166522
180	0x3d72f13a	0.059312083
181	0x3b13209b	0.0022449854
182	0xbb894f41	-0.004190356
183	0xbc7ccd25	-0.01542977
184	0x3b847c6d	0.004043153
185	0xbda8bc7f	-0.08239078
186	0xbd22602b	-0.039642494
187	0xbd4b844f	-0.049686726
188	0x3a840322	0.0010071734
189	0xbc9cdc85	-0.01914812
190	0xbd7e882d	-0.062141586
191	0xba9f7c14	-0.0012167715
192	0x3b805fbe	0.0039176634
193	0x3d53ae01	0.051679615
194	0x3cd10d30	0.025518984
195	0xbd13741e	-0.03599941
196	0x3bba158d	0.0056788386
197	0x3d79b870	0.06096691
198	0xbb8fcaf3	-0.004388207
199	0x3d562a74	0.05228658
200	0x3c62d795	0.013845344
201	0x3d304df4	0.043043092
202	0x3c7d73df	0.01546952
203	0xbdcc3abc	-0.0997214
204	0x3b9b0fcb	0.0047321073
205	0x3c805567	0.015665723
206	0x3cf62aa8	0.030049637
207	0x3ba8e676	0.005154426
208	0xbd0c4d8c	-0.034253642
209	0xbd160f27	-0.036635544
210	0x3b344d1d	0.0027511783
211	0xbc2cc5c9	-0.0105452025
212	0x3d422f94	0.047408655
213	0x3d2eb38b	0.042651694
214	0xbd4fd883	-0.05074359
215	0xbce4eb2f	-0.027944176
216	0xbc0092af	-0.007847472
217	0x3c1f6955	0.009729703
218	0x3d15270b	0.036414187
219	0xbdc2830b	-0.09497651
220	0xbc9e3b5f	-0.01931542
221	0xbce2eeae	-0.027701702
222	0xbd247390	-0.04014927
223	0x3cf9ec39	0.030508148
224	0x3cdee26e	0.02720758
225	0xbd7a9a39	-0.061182234
226	0xbc197898	-0.009367131
227	0xbaefc564	-0.001829308
228	0x3cc93585	0.024561653
229	0x3d4f7722	0.050650723
230	0xbce681fd	-0.028138155
231	0xbb83ca6f	-0.0040219347
232	0xbc346b91	-0.011011974
233	0xbc2838ca	-0.010267446
234	0x3cb387b7	0.0219153
235	0xbbd3fb9f	-0.0064692046
236	0x3d51dd02	0.05123616
237	0xbc92ed18	-0.01793532
238	0xbc00575f	-0.007833331
239	0x3c87986f	0.016552178
240	0xbc8a8659	-0.016909765
241	0x3d3bf917	0.045891847
242	0xbbc7d78e	-0.006098694
243	0xbcaa7c4d	-0.020811224
244	0x3d87b567	0.066263966
245	0xbc961a59	-0.01832311
246	0x3cf04ad8	0.029332563
247	0xbd39e71a	-0.04538641
248	0x3d753a2e	0.059869938
249	0xbb872f03	-0.0041254773
250	0xbc7490b2	-0.014927076
251	0xbc1eae60	-0.009685129
252	0xbda75b30	-0.081716895
253	0xbccaf27c	-0.024773829
254	0x3d534f90	0.05158955
255	0xbd3f7150	-0.046738923

bias f4 [2]
0	0xbd7b94c4	-0.06142117
1	0xbdc3d7fc	-0.0956268
