_examples/Simulation/Queueing/prelearnt_Q_function_Queueing.pt (torch, 329935 bytes, 8 tensors)

weight f4 [200, 3]
000000 4e ea 52 3e c6 ae 7e 3e cd 91 34 bf ab 50 45 3f
       0.20597193 0.24871358 -0.70534974 0.77076215
000010 af e7 0a be 50 3d 14 3f b2 e1 d7 3d 64 72 39 bf
       -0.13564943 0.57906055 0.10541095 -0.7244017
000020 7b 26 07 3e 0a 2a ff be 70 38 0b be 96 ba 0d 3f
       0.13198273 -0.4983676 -0.13595748 0.5536283
000030 b6 e0 a7 3e 74 28 19 3e 14 af 86 be b2 90 58 3e
       0.32788628 0.14956838 -0.2630545 0.21148947
000040 37 53 4e 3e 73 5f dd be ef 94 9c 3e 30 c8 40 bd
       0.20148931 -0.43236884 0.30582377 -0.047065914
000050 26 e2 51 bf 96 a2 e5 be eb 4a f8 be f6 ac 0a be
       -0.819857 -0.44850606 -0.48494658 -0.13542542
000060 3b 43 21 be 36 85 85 3e c4 e2 eb be d7 22 2c bf
       -0.15748303 0.26078194 -0.46071446 -0.6724066
000070 50 b3 11 bf a6 ed f9 3e a0 92 bf 3c 9e 2c fc be
       -0.56914234 0.48814124 0.023385346 -0.4925279
000080 18 42 ae be cc 0c 33 be d2 fd 4b be 6c 17 e5 bd
       -0.340348 -0.1748535 -0.19921044 -0.11186108
000090 f1 c4 d7 3e 91 a7 43 bd 4f 21 48 bd 00 c1 b4 3e
       0.42142442 -0.047767226 -0.04885989 0.35303497
0000a0 e4 10 9d be 4a 7c c4 be f2 49 c0 be 10 61 f6 3d
       -0.3067695 -0.38376075 -0.37556416 0.12030232
0000b0 2a 7c 78 be b8 7e ec 3e cd dc 7d be 3c d9 85 3d
       -0.24266115 0.4619043 -0.2479126 0.06535575
0000c0 0b f0 a7 be fa 70 94 be 56 e8 f7 3e 98 ee 02 3f
       -0.32800326 -0.28992444 0.48419446 0.51145315
0000d0 56 7a 81 be fa d4 6e be ec fb 90 be 1e e3 3e be
       -0.25288647 -0.23323432 -0.283172 -0.18641326
0000e0 b4 a3 06 be ee 6b 10 3f c2 fe 01 3f d3 68 e6 3e
       -0.13148385 0.5641469 0.50779355 0.4500185
0000f0 8c e7 d1 be 84 d6 ee be bc ed 2d be 9a b0 19 be
       -0.4099697 -0.46648037 -0.1698522 -0.15008774
000100 2f 4b 46 be 41 8a 3b be 6c 9f d5 be d7 ed 1f bc
       -0.19364618 -0.18314458 -0.41723192 -0.009761295
000110 9f bd 10 be 10 fc 57 3e 74 8a a3 be 6c a5 9a be
       -0.14134835 0.21092248 -0.3194157 -0.30204332
000120 20 11 c0 bd 93 ae e1 be cb 2f 04 bf 20 cc 07 3f
       -0.09378266 -0.44078502 -0.51635426 0.53045845
000130 d0 cb c0 3e 74 06 b8 3c 43 16 2f be 41 54 ef 3d
       0.37655497 0.022464015 -0.17098336 0.11685992
000140 52 a9 eb 3e b3 5c 99 3e 99 5f 47 3e 5c 2a 32 3f
       0.4602762 0.29953536 0.19470061 0.69595885
000150 d5 77 46 be 89 e5 ce be 26 20 a6 be b5 28 54 3d
       -0.1938165 -0.40409496 -0.32446402 0.051796634
000160 fb a4 01 be 2f 9a aa 3e 70 12 71 bf c4 73 d7 be
       -0.12660591 0.33320758 -0.9416876 -0.4208051
000170 3a be a3 3e 5f c0 1b bf a9 3f 22 3e ba d4 43 3e
       0.3198107 -0.6084041 0.15844597 0.19124117
000180 b9 90 5d 3e 2e 18 82 3e 91 dc 8c bd f4 cc c3 be
       0.21637239 0.25409073 -0.06878007 -0.38242304
000190 ba b4 84 be f6 8d 2c 3e a2 fd e3 3e 89 22 3c bf
       -0.25919133 0.16851029 0.44529444 -0.73490196
0001a0 2c a0 2d 3d 02 66 1a bf 6f 06 5f 3e 15 e3 e6 be
       0.04238908 -0.603119 0.21779798 -0.45095125
0001b0 43 96 0d bf 38 ad 2f be 8c d7 e0 bd d8 45 b6 be
       -0.55307406 -0.17155921 -0.10978612 -0.35600162
0001c0 c6 42 c6 3e 91 21 48 be a8 7f 9e be dc 48 ce be
       0.3872282 -0.19544055 -0.3095677 -0.40289962
0001d0 45 d4 48 be 12 6b 06 be c5 99 a0 be e0 63 8c 3e
       -0.19612224 -0.13126782 -0.31367317 0.2741995
0001e0 5b 4c e5 bd 88 ab 11 bf 8c 3c 04 3e e2 e6 de 3e
       -0.11196204 -0.5690236 0.12913722 0.43535525
0001f0 bc 0a 44 3e dc 7b fd be 8e 53 33 3e 50 3a af be
       0.1914472 -0.4950856 0.17512342 -0.34224176
000200 07 8f 31 3f a0 e6 f9 bc 18 6a fa bd 80 34 d2 be
       0.6935887 -0.030505478 -0.12227267 -0.4105568
000210 08 2c 35 bf 9d 1c f2 be 48 e1 2b 3e 2a 53 a2 bd
       -0.7077031 -0.47287455 0.16785157 -0.079260185
000220 61 c3 c5 be 2e 8c a3 bd 94 cb 3b be 4e 11 b6 be
       -0.38625625 -0.079857215 -0.18339378 -0.35560077
000230 d2 d3 d4 be 79 dc 56 be 6d b8 af 3e 3f 5d 02 bf
       -0.41567856 -0.20982541 0.34320393 -0.5092353
000240 a4 13 56 be 38 8a 62 be f8 bd 8b 3e a6 12 8f 3e
       -0.2090593 -0.22123039 0.27293372 0.27943915
000250 fe 03 1c be 70 74 c1 be 0f f4 aa be 68 d8 b8 be
       -0.15235898 -0.37784147 -0.33389327 -0.36102605
000260 b1 0f 3d 3e 1f 0f f5 3e 52 e0 2c bf 0e 2a ec 3e
       0.18463017 0.478631 -0.67529786 0.46125835
000270 50 3a 39 3e d8 38 6e be 80 66 ca bb 74 b5 8d bb
       0.1808865 -0.23263872 -0.0061767697 -0.0043246094
000280 3d 10 3e bd 28 02 96 3e 2c b4 9d 3e 26 c6 f7 be
       -0.046402205 0.2929852 0.30801523 -0.48393363
000290 bc 5f 9a be 64 d9 1a be c9 6e fc be bb 54 15 3f
       -0.30151165 -0.1512199 -0.49303272 0.58332413
0002a0 aa d5 15 bf ae 0a b9 3e d2 d9 8b be be a5 1d bf
       -0.5852915 0.3614096 -0.2731462 -0.6158103
0002b0 ff ae 64 bd 98 02 49 bf a2 b7 c0 be e0 63 6a bd
       -0.05583095 -0.7851958 -0.376401 -0.057224154
0002c0 0a 58 a6 be 77 68 1b 3f 57 12 2e 3f 2c 72 29 3f
       -0.32489043 0.60706276 0.67996734 0.6618984
0002d0 83 a1 81 3e a3 37 90 3e 72 3f df 3d 38 fc 72 be
       0.25318536 0.28167447 0.10900773 -0.23729026
0002e0 a0 3b 2f bd d8 31 81 bd 5b 7a 8a be be b4 80 3e
       -0.042781472 -0.06308335 -0.27046475 0.25137895
0002f0 6f 96 b9 be f3 1d 54 be 75 f8 e4 be df 33 23 3e
       -0.36247584 -0.2071455 -0.44720808 0.15937756
000300 db e4 9d 3e 18 59 21 bf b0 bc ac be a6 d6 01 bf
       0.30838665 -0.6302657 -0.33737707 -0.5071815
000310 13 58 a9 bd d9 2c 9c be 67 13 ea 3c 24 46 a9 be
       -0.08268752 -0.30502966 0.028573705 -0.33061326
000320 8b c8 5d 3d 34 9d d1 bd 18 d4 1f be 80 02 a2 bc
       0.05414633 -0.10235062 -0.15608251 -0.019776583
000330 0f da d2 3e 20 4b 30 bf 4c ea e7 bc 7c ed 85 3d
       0.4118199 -0.6886463 -0.028309964 0.06539437
000340 68 cf 4b 3f 94 78 e3 3e ec 44 dd be 18 e7 20 3f
       0.7961335 0.4442793 -0.43216646 0.6285262
000350 0c e7 c4 be ab ed 7b 3d e7 6e 8a be 51 a1 c2 3e
       -0.38457525 0.061505955 -0.27037737 0.380137
000360 40 d0 47 3d 7f 24 ba be 70 04 11 bf e4 7e 4b be
       0.048782587 -0.3635597 -0.56647396 -0.19872624
000370 be 14 8f 3e fc dd 43 be 70 05 d5 3e 31 0b b0 3e
       0.27945513 -0.19127649 0.4160571 0.34383538
000380 3f 81 6f bd 77 57 39 3f cf 50 63 3e a8 a9 92 3d
       -0.058472868 0.72399086 0.22198795 0.071612656
000390 1b e7 23 3c 03 0c c6 be 07 83 09 bf 4a f1 23 3e
       0.01000383 -0.3868104 -0.53715557 0.16010013
0003a0 88 4c c5 bd ef 12 10 3f 54 74 89 3e 77 4c 0e bf
       -0.09633738 0.5627889 0.26846564 -0.55585426
0003b0 4a be e8 3e 76 b4 0c 3f 4d 56 e6 3e 5f ba 28 3e
       0.4545768 0.5496286 0.44987717 0.16477345
0003c0 44 c0 f7 bd 40 08 65 3c f4 81 f5 bd bf 32 d4 be
       -0.12097219 0.013979018 -0.11987677 -0.41444966
0003d0 2c a6 42 3e 01 52 88 be e4 ee 54 3e ac 82 14 3f
       0.19008702 -0.26625064 0.20794255 0.5801189
0003e0 f7 da 1a 3f 53 b6 3a 3e df 45 c7 be 3b 5d 1f 3f
       0.60490364 0.18233614 -0.38920495 0.62251633
0003f0 30 70 f1 3e 6e b8 f5 bc fb 73 0b be 10 18 ae 3e
       0.47155905 -0.02999517 -0.13618462 0.34002733

bias f4 [200]
000000 cc ae a3 bd 61 3b 17 bf 10 b1 28 be 0e 7a 00 bd
       -0.07992324 -0.5907498 -0.16473794 -0.0313664
000010 ae d5 0e bf 25 9c 2b bd 81 be 84 bd c2 08 f1 be
       -0.557948 -0.041896958 -0.06481648 -0.47076994
000020 60 83 b7 bc 54 5c ee 3d fc 8a 4e be 44 34 4c be
       -0.022401512 0.11638704 -0.20170206 -0.19941813
000030 5e 50 d8 be 0e fc e9 be 2b 4f a5 be 55 37 9a be
       -0.42248815 -0.45700115 -0.32286963 -0.3012034
000040 4f 8f 5f be 4c e1 0e bf 94 31 3f 3e e0 e5 2d bf
       -0.21832012 -0.55812526 0.18671256 -0.67928886
000050 a0 a8 a9 3e f9 a3 04 3f 1f cb 99 3e 79 bb dd be
       0.33136463 0.518127 0.30037782 -0.43307093
000060 a3 39 b3 be 33 fd 1c bf 93 ca af be df 60 26 be
       -0.3500491 -0.6132385 -0.3433424 -0.16247891
000070 33 5d 13 3f cb 08 82 bd 6a 5b eb 3d 63 eb 57 be
       0.57564086 -0.063493334 0.11492045 -0.21085887
000080 97 a6 a1 be 71 52 23 36 0d fb fd bd 84 ae df 3e
       -0.3157241 2.433688e-06 -0.124014 0.43687832
000090 98 49 a6 bd 29 c1 42 be d8 b4 af 3e 29 1b d3 be
       -0.08119506 -0.19018997 0.3431766 -0.4123166
0000a0 e5 5c 16 be db 08 9c be 68 ef cf be 84 a9 af be
       -0.14683874 -0.30475506 -0.4061234 -0.34309018
0000b0 ef 7e 99 3d e8 c7 5a 3e 9e 75 95 3e 9b f9 88 3d
       0.07494914 0.2136532 0.29191297 0.066882335
0000c0 5d fd 11 bf 4e bd a9 be 62 c5 43 be 01 2c 33 be
       -0.57027227 -0.3315224 -0.19118264 -0.17497255
0000d0 e2 3c 01 bf 8f 76 97 be 61 3b 9e bd 6f ee dc bd
       -0.50483525 -0.2958264 -0.077261694 -0.10787665
0000e0 d9 79 95 bc 52 d7 3b 3e 04 46 a9 be 46 0e e5 be
       -0.018246578 0.18343857 -0.3306123 -0.44737452
0000f0 01 ac ef be d0 7a 1f bd 6a e1 e3 bb c3 d4 54 be
       -0.46810916 -0.038935483 -0.0069543617 -0.20784287
000100 0a 95 6f be 38 df bc 3e bd 7e b3 bd 3a d2 5f be
       -0.23396698 0.36889052 -0.08764408 -0.21857539
000110 bd 35 3a be d5 33 18 bf f4 df a1 3c 4d 75 ab be
       -0.18184562 -0.5945409 0.01976011 -0.3348793
000120 e4 b5 ed be 57 d0 c8 be f3 22 18 bf 13 f8 10 bf
       -0.46427834 -0.3922145 -0.5942833 -0.5662853
000130 bd 11 bd 3e b0 db 65 be 3b 02 8a be d4 33 0a bf
       0.36927596 -0.22447085 -0.26954827 -0.53985333
000140 fc 32 7c be 41 8d 18 bd 5f 6a 1f bf 00 95 e8 be
       -0.24628824 -0.037244085 -0.62271684 -0.45426178
000150 d6 cd af bd e8 a2 ad be 42 4f c6 be 0f 62 61 be
       -0.08584182 -0.3391335 -0.38732344 -0.22010063
000160 c8 81 3e be 7e 05 cb be 20 6b 9c 3e 10 b6 aa bd
       -0.18604195 -0.39652628 0.3055048 -0.08335507
000170 9c b2 ac 3c 9e c8 82 be b3 3c c7 bd e6 0c 9b be
       0.021081261 -0.25543684 -0.09728374 -0.30283278
000180 59 b2 f6 be f1 80 77 be 7d 96 bc be 9b be 13 bf
       -0.48182943 -0.24170281 -0.36833563 -0.57712716
000190 db 24 15 3e 3d da c3 be 78 b0 2d be 78 2e 1c bf
       0.1456484 -0.3825244 -0.16961849 -0.61008406
0001a0 74 be c6 be 70 a7 b8 be c3 91 61 3e 6d b4 8c be
       -0.3881718 -0.36065245 0.2202826 -0.27481404
0001b0 30 4c b3 be 78 d4 07 bf 8d ac 16 bf 16 46 de bd
       -0.35019064 -0.53058577 -0.5885704 -0.108532116
0001c0 08 c5 55 be 8f 86 13 bd f7 7d 11 bf bc 6e 57 be
       -0.20875943 -0.036016997 -0.5683283 -0.21038336
0001d0 47 81 7e be 2e 04 08 be 2e 25 ad be d4 ae cf be
       -0.24854003 -0.13282844 -0.33817428 -0.4056307
0001e0 05 63 19 3d 4b d2 25 3e fc 77 c3 be 55 1e 56 be
       0.037447948 0.16193502 -0.38177478 -0.20910008
0001f0 3b d2 fb be 40 6c 9e be d8 dd 16 bf 64 dd 7b be
       -0.4918383 -0.30941963 -0.58932257 -0.24596173
000200 65 eb 02 bf 9a f3 12 be 36 12 12 bf 60 e1 76 be
       -0.51140434 -0.14350739 -0.5705904 -0.24109411
000210 6d a4 f0 be fb 18 c3 be 86 73 0b bf 70 63 83 bd
       -0.47000447 -0.38104996 -0.5447315 -0.064154506
000220 0c 77 93 be 9d 3d 9b 3e 99 c2 af be c4 b6 f6 bc
       -0.28801763 0.30320445 -0.34328154 -0.030116446
000230 66 1e 06 bf 26 21 4c be 54 e6 81 be ad 02 f7 be
       -0.52390134 -0.1993452 -0.2537104 -0.4824423
000240 62 1e 96 be 03 74 72 be f6 66 91 be 3e 6a be bb
       -0.29320055 -0.23677067 -0.28398865 -0.005811005
000250 64 33 86 be 25 98 e5 be 4e 6d 1f be 1d 60 a1 3e
       -0.26211083 -0.4484264 -0.1556904 0.3151864
000260 1c 21 18 be 2c 7e 11 bf d6 87 7c bd 33 b9 b0 be
       -0.1485638 -0.5683315 -0.06165298 -0.34516296
000270 53 76 22 3e 4f d0 90 be ae d1 d6 3e de 58 bf be
       0.1586545 -0.28283927 0.41956848 -0.37372488
000280 ca d4 66 3e 26 c3 18 be bd 1d e9 be 71 f1 74 3e
       0.2254211 -0.14918193 -0.455305 0.23920228
000290 c7 cb 0f 3f 4e 4a 46 be 51 9f 7b be 79 a7 8d 3e
       0.56170315 -0.19364282 -0.24572493 0.27666834
0002a0 e2 16 df ba 1f 53 d0 be e7 52 d8 bd 42 c4 62 be
       -0.0017020369 -0.40688416 -0.10562687 -0.22145179
0002b0 d9 d0 a6 be 28 94 db be ce 2c 35 bb ee c3 64 be
       -0.32581213 -0.42886472 -0.0027645114 -0.22340366
0002c0 75 cc bf bd 4d 79 08 bf 58 df 03 bf f5 2f 1f 3d
       -0.09365169 -0.5331009 -0.5151267 0.038864095
0002d0 10 53 18 bf 83 cb ec be 91 ef 09 bd 52 10 bb bd
       -0.59501743 -0.46249017 -0.033675734 -0.09133972
0002e0 5b 95 84 be a7 12 52 be b2 0f 31 be 34 0b 31 be
       -0.258952 -0.20514928 -0.17291144 -0.1728943
0002f0 c5 ce d3 be e3 54 24 3e f2 dc 84 be 61 01 ed be
       -0.4136869 0.16048007 -0.25949818 -0.46290115
000300 29 d2 d8 be 59 c9 1b bd 59 22 eb be da be 11 bf
       -0.4234784 -0.038033817 -0.45924643 -0.5693184
000310 38 02 66 3e f2 0a 1c bf d0 65 96 be 20 40 3a be
       0.22461784 -0.609542 -0.29374552 -0.18188524

weight f4 [200, 200]
000000 ad 85 43 bd 0a 22 4c bd c8 a7 fa 3c 6f 30 60 bd
       -0.047734905 -0.04983715 0.030597582 -0.05473369
000010 a8 bc 96 3c 9b 14 5c 3c 38 75 6a bd ec 1a b9 3c
       0.018400505 0.013432647 -0.057240695 0.022595845
000020 66 00 4e ba 1d e6 48 bc 07 a9 89 3d a6 e5 21 3d
       -0.0007858336 -0.0122618945 0.067216925 0.03952565
000030 0d f5 22 bd 6a b4 98 bc 7c d3 69 bc 22 82 64 bd
       -0.03978448 -0.018640716 -0.014271613 -0.055788167
000040 7b 4f 5e 3c dc 30 2c bd 49 f5 35 bd fc ee c7 ba
       0.013568754 -0.042038783 -0.044423375 -0.0015253718
000050 32 4b db bc 37 3c 49 bd ba 1f 12 bd 96 86 7a 3d
       -0.026769254 -0.04912969 -0.035674788 0.061163507
000060 40 65 57 3d a9 4c 1a 3d f2 34 c2 ba 94 99 80 bc
       0.052586794 0.037670765 -0.0014816804 -0.015698232
000070 73 3f 4d bd 45 19 34 3d 71 af 9c 3a fc 82 05 bd
       -0.050109338 0.04396941 0.0011954141 -0.03259562
000080 70 9d fe 3c 70 f3 b1 3b ff 32 88 3c 9b 2c b1 bb
       0.031080931 0.0054306313 0.01662588 -0.0054069287
000090 7b 17 8d 3d 77 e2 50 3d c3 bd 93 bd ea a2 9e bc
       0.06889244 0.050997224 -0.072139286 -0.019364793
0000a0 64 2e d8 3c 78 95 19 3d 2e c5 a7 bd 80 34 ae bc
       0.026389308 0.03749606 -0.08191906 -0.021265268
0000b0 3d 7f 41 bd 45 8d 50 3d 8f 0f 42 bd e6 6b 3a bd
       -0.047240485 0.050915975 -0.04737812 -0.045513056
0000c0 89 3d 8f 3d ea 4f 5f 3d a3 03 ad bb 20 de 30 3d
       0.06994159 0.05451957 -0.0052799745 0.043180585
0000d0 c0 32 af 3c 5d ad d2 bc 12 cc 74 3d a2 e7 7d bb
       0.021386504 -0.025717432 0.05976493 -0.00387428
0000e0 d4 88 23 3d 5e 3c 66 bc 80 26 2f 3c 27 92 42 bd
       0.03992541 -0.014052479 0.010690331 -0.047502663
0000f0 c5 59 2d 3d 2c 41 5f bd 3d 96 3d 3d 8d 45 39 bd
       0.04232194 -0.054505512 0.046285857 -0.045232344
000100 69 47 9a bc 8b e0 e9 3c f7 71 ed 3c 61 a3 86 3d
       -0.01883288 0.028549453 0.028985007 0.06574131
000110 7e f6 1d 3d 44 97 67 bd 45 ce 5d bd 3a 3a ec 3c
       0.03856515 -0.056540743 -0.054151792 0.028836358
000120 ac f6 ca 3c 34 2e 29 3d a0 fe 3e bd c1 0c 9e bd
       0.024775825 0.04130383 -0.046629548 -0.07717276
000130 1c 17 45 bd 94 cc 05 bd 23 70 78 3c 47 2d c6 3c
       -0.048117742 -0.032665804 0.015163454 0.024191512
000140 42 09 3f bd eb ab 7f bd ea 9b 13 3d 27 5d e9 bc
       -0.04663969 -0.062419813 0.036037363 -0.028486801
000150 f3 42 1a bd 3e da 1a bd 28 63 4a bd a9 aa 99 3c
       -0.037661504 -0.03780579 -0.04941097 0.018758135
000160 0f 9b 85 bd 20 7f 8d bb 75 23 83 bd 0a 59 0e bd
       -0.06523716 -0.004318133 -0.06403247 -0.034752883
000170 dc ca 2e 3d d3 2f f2 bc 26 cd f0 bc cc 93 b4 3c
       0.04267393 -0.02956382 -0.029394697 0.022043131
000180 3e 07 f4 bb 9a a7 82 bd d7 e4 af bc 8c b5 29 3c
       -0.0074471524 -0.06379624 -0.021471424 0.010358226
000190 6c 48 8f bd 32 28 c1 bc 45 c6 4f bd 80 12 5c bd
       -0.06996235 -0.023578737 -0.050726194 -0.05372858
0001a0 00 d2 51 3a d9 f3 15 bd f1 bd 9e bc 8b fa 79 bc
       0.000800401 -0.036609504 -0.01937768 -0.015257488
0001b0 e2 8b 83 bc 08 7c 3a bd c7 35 12 3d 0c c6 55 3b
       -0.016057912 -0.04552844 0.035695817 0.0032619266
0001c0 66 b7 6d 3d 33 fe 4d 3b 35 02 ca bc 6d 59 02 bd
       0.05803623 0.0031432032 -0.024659256 -0.031823564
0001d0 19 49 92 bb 0a 56 c0 bc 1e 86 98 bc 1a df 6b bd
       -0.0044642803 -0.023478527 -0.01861864 -0.057585813
0001e0 26 7c 50 3c 2c 97 44 3c d8 3d 2d bc 8d f6 aa bc
       0.012724912 0.011998933 -0.010573827 -0.020869518
0001f0 ea b4 74 bd 9f 80 0d 3d 9a 97 01 3d aa a7 a4 bc
       -0.059742846 0.03454649 0.03163872 -0.02009948
000200 fd f0 1c 3a e4 49 d4 3c 32 52 10 bd 34 f2 64 bc
       0.0005986838 0.02591414 -0.035234638 -0.013973761
000210 6e f1 cf bc 7b c2 3a 3d 66 37 f2 bc 72 15 e1 bc
       -0.025383677 0.045595627 -0.029567432 -0.027476046
000220 08 2c 50 bd 28 5c 3b bd 1d 97 97 bd ef 9a e2 3c
       -0.05082324 -0.045742184 -0.074018694 0.027661769
000230 11 a3 0d bd 7a b6 1d 3d 98 af 85 bd e5 a4 ee ba
       -0.03457934 0.0385041 -0.065276325 -0.0018207101
000240 a0 64 67 bb e9 e6 1f bd e8 01 f2 bc 65 55 0f 3d
       -0.003530778 -0.039038572 -0.029541925 0.034993548
000250 d3 2a c7 3b c9 16 06 bc 64 a7 35 3d f0 9e 56 bd
       0.006078103 -0.008184143 0.04434909 -0.05239767
000260 3f 92 13 3d 24 0d 3f 3d 30 f1 3c bd 9b eb a1 3c
       0.036028143 0.04664339 -0.04612845 0.019765666
000270 58 7b c2 3c 80 49 05 3b 29 68 3c bd 88 c2 27 bd
       0.023740456 0.0020338 -0.045997772 -0.040957004
000280 f7 5d 86 3d dc a5 2d bc 0a 3b 56 3c 7a f3 3a 3d
       0.06560891 -0.010598626 0.013075599 0.045642354
000290 3c 97 f9 3b 9a ee f1 bc 3d 2b 39 3d 95 27 24 3d
       0.0076169055 -0.02953272 0.04520725 0.04007681
0002a0 6b 4e 63 3b fb ea 46 3d da e4 79 3c a6 f6 5e 3c
       0.0034684192 0.04856394 0.015252316 0.01360861
0002b0 90 41 46 3d e6 f2 90 bd 28 83 12 bd 8a bc 39 3d
       0.04840237 -0.07077579 -0.03576961 0.04534582
0002c0 b6 6d 32 3d 68 ff 2e bd f0 88 b3 3c ef 26 88 bd
       0.04356166 -0.042724043 0.021915883 -0.06648051
0002d0 8d b6 e6 bc 6f d3 8b 3d cd 93 43 bc d8 0c 5c 3d
       -0.028163219 0.06827437 -0.011937094 0.053723186
0002e0 f7 83 4b 3d 34 27 64 3d 4e 6a 19 3d f1 37 be 3c
       0.0496864 0.05570145 0.037454896 0.023220034
0002f0 f4 e2 d8 3c fa ab 21 3b 91 1d 00 bd 2a a1 25 3d
       0.026475407 0.0024669156 -0.031278197 0.0404369
000300 d4 10 d0 3c 73 92 35 bd 3e 24 56 3d ea 53 11 3d
       0.02539865 -0.044329118 0.052280657 0.035480417
000310 b9 56 bd bc a6 ba 63 3d ae 1b 2a 3c 84 81 c0 3c
       -0.023112642 0.055597924 0.010382576 0.023499258
000320 c5 c7 3d b9 e4 43 36 bc 7e 9a 4d 3d 00 d4 cf 3c
       -0.00018098865 -0.011124585 0.050196163 0.025369644
000330 50 e7 8b 3c f3 79 ad bc 1b 25 f8 3c fa 0b 69 3d
       0.017078072 -0.021176314 0.03029113 0.056896187
000340 85 7e 88 bd 46 5f 63 bd c6 5c 4d 3d 70 c2 95 bb
       -0.06664757 -0.05551078 0.050137304 -0.004570298
000350 70 53 6f bd 96 71 5c bd af 11 5b bd 1c 2c 2a bc
       -0.05842918 -0.05381926 -0.05348366 -0.010386493
000360 60 9c 62 3b 74 8e 83 bc 38 11 e6 3c bf 8d 83 3d
       0.003457807 -0.016059138 0.028084382 0.0642352
000370 00 89 14 3c cc a1 f4 bc 7e 5c 2f bc 20 7e ff bb
       0.0090658665 -0.029862307 -0.010703204 -0.0077970177
000380 c4 28 77 bc 04 ba 0f bc ac c4 09 bd e2 19 1f 3d
       -0.015085403 -0.008772377 -0.033634827 0.038843043
000390 39 a6 90 bb f3 55 c8 bc 6d 5c 7b 3b c2 44 e5 3c
       -0.0044143465 -0.024455046 0.003835465 0.027986888
0003a0 71 a3 8e bd d7 5b e2 3c a0 a5 b7 3c 18 4c 8b bd
       -0.06964768 0.027631683 0.022417843 -0.06801623
0003b0 c0 22 fe 3a 17 ff a2 bd 27 4f 41 bd 80 8e 39 ba
       0.0019389018 -0.07958811 -0.047194626 -0.0007078424
0003c0 78 c7 8c 3c a0 f9 aa 3b 12 95 5c 3d ec cb 00 bd
       0.017184958 0.005217746 0.053853102 -0.031444475
0003d0 b8 16 9a 3c 3b 35 95 bd a7 5f 02 bd 30 1f 68 bd
       0.018809661 -0.072855435 -0.031829502 -0.056670368
0003e0 3a 9d 67 3d 6a 59 6f 3d cc 08 68 bc 2a 56 23 3d
       0.056546427 0.05843488 -0.014162254 0.039877094
0003f0 fa 72 e3 bc b1 c9 8f 3d f8 41 2f 3c 20 d8 1b bd
       -0.027764786 0.070208915 0.0106968805 -0.03804791

bias f4 [200]
000000 34 1b ad bd 36 e8 9d bb b8 33 49 3b 4c 41 e9 3d
       -0.08452454 -0.0048189415 0.0030700993 0.113894075
000010 3f 9f 90 3d 26 ab a7 be c7 8d fd 3c c5 40 79 3d
       0.07061624 -0.32747763 0.030951394 0.060852785
000020 c7 78 85 bd 8a dc 98 bb 85 d7 34 be 3f c3 09 3d
       -0.06517177 -0.004664962 -0.17660339 0.033633467
000030 a7 59 af 3c 8e 81 8e 3d ac 45 c8 3e 44 0c b7 bd
       0.021405054 0.06958304 0.39115655 -0.08937886
000040 41 0c b6 3c 2c 90 a1 bc 0f 72 c1 bd a4 21 bc 3b
       0.02222264 -0.019722067 -0.09445583 0.005741315
000050 f0 9c 59 3c 8b a1 3c 3d a0 0a 88 3d 41 35 16 3e
       0.013282046 0.046052497 0.066426516 0.14668752
000060 f6 54 8f bc 0d c6 e4 bd c7 ff 41 bd a2 6e 02 3e
       -0.017496567 -0.11170588 -0.04736307 0.12737516
000070 e1 e5 c8 3c 57 6e 6f be 89 75 db 3e 37 84 dd bd
       0.024523677 -0.23381935 0.4286311 -0.108162336
000080 aa 8a 04 be 00 b8 25 3b 4e 90 55 be e6 17 47 3e
       -0.12943521 0.0025286674 -0.20855829 0.1944271
000090 85 01 62 bc 37 2b 86 bd b4 49 3c 3d 21 e6 3f 3d
       -0.013794308 -0.06551211 0.045968726 0.046850327
0000a0 50 ed 34 3d 45 fb ee bb 4a aa ba bb 04 5b 89 bd
       0.04417163 -0.0072931373 -0.0056965696 -0.06706813
0000b0 dc f6 76 3e 85 39 8e bd f7 dc aa 3e 2b e0 8d 3d
       0.24117607 -0.06944565 0.33371708 0.06927522
0000c0 ac 4d d4 3b c2 13 1b bd e7 59 93 3d 1c f4 a4 bd
       0.006478986 -0.03786064 0.07194882 -0.08054373
0000d0 c3 2c a2 3d 0c 81 2c 3e 54 86 60 3e 54 0a 9d bd
       0.07918694 0.16846102 0.21926242 -0.076679856
0000e0 a1 65 b8 bd 2f 76 d8 bc 9d ef 87 3c 14 40 dd 3d
       -0.09003759 -0.026423542 0.016593749 0.108032376
0000f0 64 66 28 bd b9 c1 a8 bc 74 05 8b bd f6 fb 80 bd
       -0.041113272 -0.020600187 -0.067881495 -0.06298058
000100 6b 48 9d 3e 39 db 09 3e 30 d8 00 be e5 6c ce 3d
       0.30719313 0.13462533 -0.12582469 0.10079364
000110 b0 5e fe 3c ea f0 6c bd e9 3a 54 bc f8 9a e0 bc
       0.03105101 -0.05784694 -0.012953498 -0.027417645
000120 4e 76 c1 bc 38 bb 57 bd 4a 4b 9c bc 51 8a 85 bb
       -0.023615982 -0.05266878 -0.01907887 -0.0040753265
000130 41 76 5a bd a6 f0 33 be f1 68 84 3d 28 60 11 3d
       -0.053335432 -0.17572269 0.064653285 0.035492092
000140 4c 0b 52 3c ba d2 51 3e 24 65 2a 3d fd 34 96 3d
       0.012820076 0.20490542 0.04160036 0.073343255
000150 67 c4 2a 3e 66 68 85 bd ec ae 58 bd f5 39 91 3c
       0.16676484 -0.06514053 -0.052901193 0.017727831
000160 cd fb 59 3c b5 5a a3 bd f0 31 2f be 37 ee b9 bc
       0.013304663 -0.07976285 -0.17108893 -0.022696598
000170 0e 00 a0 bd 29 b9 c5 bc 36 93 d2 bb 17 1e a4 3d
       -0.078125104 -0.024136143 -0.0064262403 0.08013552
000180 82 fa 67 bc 00 ff a0 3b dc 72 3a bd d2 a3 69 bc
       -0.014158847 0.004913211 -0.045519695 -0.014260249
000190 6d bf cd 3d c8 02 05 bd cc 99 39 bd d8 5c 20 be
       0.10046277 -0.032473356 -0.045312688 -0.15660417
0001a0 d0 10 05 3c c2 f9 e5 b9 e2 5c 38 bc ec c6 61 bd
       0.008121684 -0.00043864368 -0.011252614 -0.055121347
0001b0 2d 61 db 3d e5 aa ae bc 1a fb 03 3d 36 27 a4 bd
       0.10711894 -0.021321723 0.03222189 -0.080152914
0001c0 ce 48 c9 3a 94 c5 1d bc 99 7c 6d 3d a8 92 a6 3c
       0.001535678 -0.009629626 0.057980154 0.020333603
0001d0 93 93 89 bd 16 c4 0b 3d f7 4d 42 bd 2f b8 cf bc
       -0.06717601 0.03412255 -0.047437634 -0.02535638
0001e0 4c 08 2c bd ee 41 b3 3d 6d 18 6f 3e 97 54 88 bc
       -0.0420001 0.087528095 0.23349161 -0.016641898
0001f0 5a cc c7 bc 01 f0 e1 bc 4c 8c 6d bc de b3 5f 3d
       -0.024389435 -0.027580263 -0.014498781 0.054614894
000200 ca df 80 bd ab 97 a3 bd 82 f6 7c bd a4 dc 7c 3c
       -0.062926844 -0.07987913 -0.061758526 0.015433464
000210 f8 e9 b1 3c 48 cf ba bd 43 97 90 bd 18 78 40 bd
       0.02171801 -0.09121567 -0.07060101 -0.04698953
000220 d3 5a b6 bb 8e 32 9e 3d 30 87 ca 3a dd ec 06 3e
       -0.0055650263 0.07724486 0.0015451666 0.13176294
000230 4b 2b 6a bd 1f 15 ea 3d 8c 17 7f be e1 ee 09 bd
       -0.057170194 0.1142981 -0.24911326 -0.03367508
000240 7f 60 04 3e 07 87 58 3d 74 36 98 3b b8 2b ef bc
       0.12927435 0.052863147 0.004645163 -0.029195651
000250 e4 21 a7 3b 09 e0 a3 bd 16 49 10 bb 3b 47 d2 bd
       0.0051004756 -0.08001716 -0.002201622 -0.102674924
000260 2c a0 65 bd 70 b7 6b bc 95 8f d3 3b 0a 48 59 3e
       -0.056060955 -0.014386997 0.0064563253 0.21218887
000270 ac 99 cd bc c0 71 7b bd b9 94 b9 bd cf ad b1 bd
       -0.02509769 -0.061387777 -0.0906157 -0.086757295
000280 67 f5 3e 3e 79 0b 18 be 5f a3 22 bc d9 99 36 bc
       0.18648301 -0.14848126 -0.009926646 -0.011145079
000290 1f 65 d2 3d 51 c5 39 bd fb 13 01 3d 68 e6 23 3e
       0.102731936 -0.04535419 0.031513195 0.16005862
0002a0 aa 33 01 3e cc 7c e4 bc 22 ca 32 bd b3 cc 4c 3e
       0.12617365 -0.027891539 -0.0436498 0.19999962
0002b0 ab 18 99 bc 23 0e 96 bd 97 09 17 bd b0 37 d0 3b
       -0.01868852 -0.07326915 -0.03687438 0.0063542947
0002c0 ed 4f 2f bd 28 86 82 be af 61 ae 3c d5 bc 87 3d
       -0.042800833 -0.25492978 0.021286814 0.06627814
0002d0 dc da d9 bc 29 c6 c7 3e 42 bd 5a 3e 97 2e 20 3e
       -0.026593618 0.39018372 0.21361259 0.15642773
0002e0 4c 29 fc 3c 13 6a 70 be c6 41 9b bd dd fb 98 3e
       0.03078141 -0.23477964 -0.07580905 0.29879656
0002f0 ff 4e 89 bd b0 e9 27 3e 9a c6 15 3e e0 ce 88 3b
       -0.067045204 0.16397738 0.14626542 0.004175052
000300 70 a2 27 3d 32 d7 40 3e 6d 14 3b 3d 1c 0f b4 bd
       0.040926397 0.1883209 0.045673776 -0.087919444
000310 48 fe a1 bd 8f 0e 75 3e 24 4f d3 bc be 21 8f bc
       -0.079098284 0.23931335 -0.025794573 -0.017472144

weight f4 [200, 200]
000000 7e 4c f7 3c 2c 93 a7 bb d5 bd 8c 3d 15 cd 80 3e
       0.030187842 -0.00511398 0.06872145 0.25156465
000010 11 61 54 be 05 6d e1 3c 9b 8a 2b 3d 21 1f e5 bd
       -0.20740153 0.027517805 0.04188023 -0.11187578
000020 a8 bc 6e bd 0f 3f 61 3d 86 b1 8a bd 56 94 01 3d
       -0.058285385 0.054991778 -0.06772141 0.031635605
000030 13 fd 63 3c de 94 2d be eb 96 c7 3e 6e 88 e7 bd
       0.013915318 -0.1695132 0.3898233 -0.11305319
000040 0b f2 41 3d b8 cf 57 bd 61 40 ba bc 8e 9c a6 3d
       0.04734997 -0.05268833 -0.022735776 0.08135329
000050 06 5b 06 3d 83 c9 a9 3c b6 ed a2 b9 e5 cb 4c bd
       0.03280165 0.020725971 -0.00031076156 -0.049999136
000060 f2 88 6a be fd 8e 8f bd b6 ee 26 3d 1d ad 04 be
       -0.22903803 -0.07009695 0.040754996 -0.12956662
000070 41 1d 82 3d 8a b8 17 3c cb a5 c5 3e ec 38 15 be
       0.06353236 0.009260306 0.38603052 -0.14572495
000080 29 cc af 3c d7 e9 32 bd 71 0c 8a bd 1f 43 03 3e
       0.021459656 -0.04368004 -0.06740654 0.12818573
000090 95 fa 42 bd c7 fe 6b bd eb 46 98 bd ab 5a 75 bd
       -0.047602255 -0.05761602 -0.074354015 -0.05990092
0000a0 3e b0 e3 bc 93 75 6d bd ed 78 5c 3d ce f0 d1 3d
       -0.027794 -0.057973456 0.05382626 0.10251008
0000b0 ce 91 43 3e ae d7 d3 3c 22 8f 04 3e 51 ff 9d bd
       0.19098589 0.02585968 0.12945226 -0.07714713
0000c0 b4 81 84 3d 5f 6e d8 3c 20 41 c2 bd 42 35 6a bf
       0.064700514 0.026419817 -0.09485078 -0.91487515
0000d0 d9 74 0b be 43 cd ef bd 04 1b b1 bd 8a c7 ab bc
       -0.13618793 -0.117090724 -0.08647731 -0.020969171
0000e0 08 56 4c bd 5b 5f da bc 53 1c 7f bd 85 33 e5 bd
       -0.049886733 -0.026656797 -0.06228287 -0.11191467
0000f0 12 d1 35 3d 49 32 0e bc e6 33 bf bb 25 d3 68 3d
       0.044388838 -0.008678981 -0.005835044 0.056841988
000100 fc 62 57 3e e8 76 0d be 99 51 2b bd 91 b7 b2 bd
       0.21033853 -0.1381489 -0.041825864 -0.08726419
000110 d0 9f 4f 3d bc ab 88 3d df 65 fb 3c 7d fa b3 bb
       0.05068952 0.06673381 0.030688224 -0.005492507
000120 62 e3 70 bd 27 d3 59 3d a6 ba 97 3d d9 97 86 bd
       -0.0588106 0.053179886 0.07408647 -0.065719314
000130 b6 ae 7c bd eb f7 60 bc ab f5 1f be 42 40 d4 bd
       -0.061690055 -0.013730983 -0.15621059 -0.10363819
000140 1b 53 68 bd 08 c8 91 3d de 78 43 3d e8 50 d6 bd
       -0.05671988 0.07118231 0.04772269 -0.104646504
000150 7b f1 b1 bd 60 23 16 3b 77 f1 50 3d 5e de 99 3d
       -0.08688637 0.0022909269 0.05101153 0.07513116
000160 c2 fd 08 bd fe 78 49 bd f8 3a 11 3c 64 9c 87 bd
       -0.033445127 -0.049187653 0.008864157 -0.06621626
000170 90 81 2f 3d 96 94 6b bd 80 de ce bc 1f 01 56 be
       0.04284817 -0.05751475 -0.02525258 -0.20898865
000180 50 1d 67 bd f7 a7 8b bd 4d 01 7a bd 4e e2 4c 3d
       -0.05642444 -0.06819146 -0.061036397 0.05002051
000190 9f 6c ef bd ac ad 7b 3d ab bb 58 3d 38 a9 ac 3d
       -0.1169064 0.061444923 0.05291335 0.084307134
0001a0 bd 39 28 bd 41 ef e5 39 0a e8 d8 bd b8 99 8c 3d
       -0.04107069 0.00043856542 -0.10591133 0.06865257
0001b0 07 c6 99 bd 4f 72 94 3b 7d 63 4a 3d 90 25 8b 3d
       -0.07508474 0.004530228 0.049411286 0.06794274
0001c0 46 16 05 3d 84 12 24 3d d3 cd 3a be d6 65 a5 bd
       0.032491945 0.04005672 -0.18242578 -0.08076064
0001d0 88 8e 21 3d 5f 4c 40 39 da 85 76 3d 60 d0 2e bc
       0.03944257 0.00018338997 0.060186245 -0.010669798
0001e0 1d 92 2e be a2 0c aa bd 1f be 42 3e 0f 6f e3 3c
       -0.17047925 -0.08303191 0.19017838 0.027762918
0001f0 16 ae 68 bd ab da 88 bd 7f 2e 19 be 34 b8 0a 3b
       -0.056806646 -0.066823326 -0.14959143 0.0021166923
000200 9c 78 62 3d c0 44 e3 3c 2b cd 73 3d e1 18 7a bd
       0.055290803 0.027742743 0.059521835 -0.061058883
000210 ec e0 b4 bc ff bf 92 bc 2f b4 1d 3c 0e f5 3d 3d
       -0.022079907 -0.017913816 0.009625479 0.04637628
000220 0a 0a 26 bd ce 01 5b bd d4 6b f3 3d 71 98 67 bd
       -0.040536918 -0.053468518 0.11885801 -0.056541864
000230 3e 85 6d 3d 91 a3 39 be 18 3a 9a 3c 13 6c cc 3b
       0.057988398 -0.18128802 0.01882653 0.0062384694
000240 74 56 eb bd b8 e9 f7 bd 1e 0a 77 bc 15 4e 23 bd
       -0.11491099 -0.12105125 -0.015078096 -0.039869387
000250 09 c3 a8 3d 41 a2 5c 3d 1f 0d 21 bd b6 66 b1 bb
       0.08240325 0.053865675 -0.039319154 -0.0054138554
000260 23 bf 3e bd 9c a9 1f bc d1 ee 94 3d b2 85 36 bd
       -0.046569 -0.009745028 0.07272113 -0.044561096
000270 42 a9 a2 3d 57 57 59 3d be a3 04 be b4 50 ca 3d
       0.079424396 0.05306181 -0.12953088 0.09878674
000280 c4 c4 18 3e 44 a2 4c be b1 b2 70 bd 86 b9 81 be
       0.1491881 -0.19983774 -0.058764163 -0.25336856
000290 bb b0 b1 bd e0 4a 2e 3d b7 e4 a4 bd 86 43 69 3e
       -0.08676287 0.042551875 -0.080514364 0.22779664
0002a0 de 4f 17 bf f0 fe 28 3c ab cd df 3b 96 59 be 3d
       -0.5910624 0.010314688 0.0068299375 0.09294431
0002b0 2f 17 16 bd 98 d0 bf 3c cd fb 5e 3e 40 01 2e 3d
       -0.036643203 0.023414895 0.21775742 0.04248166
0002c0 50 78 25 bd 9d a9 12 3d d3 f2 01 bc f9 fd 2a be
       -0.040397942 0.035806287 -0.007931429 -0.16698445
0002d0 a4 a8 a5 3c e0 de a4 3e 1f 5b 5e 3e 33 50 ad bd
       0.020222016 0.3220129 0.21714447 -0.084625624
0002e0 65 44 0d 3c 69 b7 f9 bd e9 55 cb 3d 9e 6b 2b 3d
       0.008622264 -0.12193186 0.099284954 0.04185068
0002f0 ee b6 6c bd bb 4b 98 bd 88 fc 49 be 9d f3 ee bd
       -0.057791643 -0.074363194 -0.1972524 -0.11667559
000300 ca df 96 bd 8c 65 86 3e 97 c9 bb bc 89 33 68 bc
       -0.07366903 0.2624935 -0.022923274 -0.014172443
000310 07 08 e8 bb 75 6f 55 3e f0 3c 7e 3c 07 89 8b 3d
       -0.007081035 0.20843299 0.015517458 0.06813245
000320 cc e9 71 bc 4f bd 89 bd f8 08 26 3d c0 bd 7e 3b
       -0.014765214 -0.06725561 0.040535897 0.0038870424
000330 35 6f e5 bc 90 ec d6 bc 2d 6c 73 bd ff 81 76 bd
       -0.02800713 -0.026235849 -0.059429336 -0.060182568
000340 18 1a 00 bd 22 40 25 3d dc 33 06 3c a4 df 41 bd
       -0.031274885 0.040344365 0.008191075 -0.04733242
000350 4d b3 83 bd da 68 a6 bc 18 70 88 bd 21 ca 56 bc
       -0.06430683 -0.020313669 -0.06662005 -0.013109715
000360 35 62 45 bd 18 f2 5b 3d a8 8f 78 3c d6 02 be bc
       -0.04818936 0.053697675 0.015170969 -0.023194712
000370 e0 63 f4 3b 68 4e 30 3c d3 ac 77 bd c8 a6 b6 3c
       0.007458195 0.010760881 -0.060467552 0.022296324
000380 58 3f 50 3b f9 08 91 bd ba 2c 49 bd c8 03 23 3d
       0.0031776037 -0.070817895 -0.04911492 0.039798528
000390 e6 e4 7a bd 8b ec a3 bd ae 91 63 bd 9c 7f 20 3d
       -0.06125345 -0.08004101 -0.055558853 0.039184198
0003a0 76 97 39 bd 90 1a bd 3c 37 c1 2d bd 03 97 8e 3d
       -0.04531046 0.023083955 -0.042420592 0.06962397
0003b0 e0 f6 d3 bb 74 b3 e9 3c d8 55 41 bd ea 18 8e bc
       -0.006468639 0.028527953 -0.047201008 -0.017345864
0003c0 e9 13 72 bd 14 f1 30 bd 7c 9e da 3c 55 3b 98 bd
       -0.05910102 -0.04319866 0.0266869 -0.07433192
0003d0 cc 68 6b bd c8 1a 93 3c 50 fe 58 bd 04 c6 37 bd
       -0.05747299 0.017957106 -0.052976906 -0.044866577
0003e0 40 ad 0e bc ea 20 38 3d 24 03 74 bd f8 de 0f 3d
       -0.008708298 0.044953264 -0.059573308 0.03512475
0003f0 37 12 80 bd 99 a9 c6 bd 10 b8 36 bd be 65 4b 3d
       -0.06253474 -0.09700317 -0.04460913 0.049657576

bias f4 [200]
000000 f0 b6 e6 3d 99 5e 66 bd 59 ad 22 bc 36 ff 90 3a
       0.11265361 -0.05624256 -0.009929025 0.0011062387
000010 0c b8 f6 bd 52 58 ea 3d 03 14 bf bd 87 a2 fe bb
       -0.12046823 0.11442627 -0.09329989 -0.0077708396
000020 01 84 be bd ab 7d f7 39 10 4e 91 bb 1d 08 8d bd
       -0.093025215 0.0004720514 -0.0044343546 -0.06886313
000030 b4 13 22 bd c0 46 78 bd df b5 4b bd d7 ee 43 3d
       -0.03956957 -0.060614347 -0.049733993 0.047835197
000040 19 f0 43 bb 03 dd 5f 3d fe dc e7 bc fe 0a 8c bd
       -0.0029897748 0.054654133 -0.02830362 -0.06838034
000050 44 90 b7 bd ee 76 a5 bd 4c 64 eb bc ca fb f4 3a
       -0.08963063 -0.08079325 -0.028734349 0.0018690762
000060 ca 48 33 bd 07 e0 3e 3c 38 92 bb bd 60 da 89 bd
       -0.04377059 0.011650092 -0.091587484 -0.06731105
000070 e6 cc 04 bd f2 ed 98 bd 65 4e a4 bd 0e 71 f8 bb
       -0.03242197 -0.074672595 -0.08022765 -0.0075818365
000080 54 2c 01 bd c7 ef f1 bc 56 33 0f 3d 55 a2 96 bd
       -0.031536415 -0.02953328 0.034961067 -0.07355181
000090 a2 cd b7 bd 21 29 3c 3c fe 26 3f bd a1 6c 39 bd
       -0.08974768 0.011484415 -0.046668045 -0.045269612
0000a0 aa 53 7a 3b 3e 98 4e bd ce ea a3 bd 6e 71 01 bd
       0.003819684 -0.05043816 -0.0800377 -0.031602316
0000b0 bd f7 89 3d 15 1d de bc 49 d6 3a 3e 75 34 7a bd
       0.067367055 -0.027113477 0.18245806 -0.061085183
0000c0 34 9b 01 be 0f e4 c3 3d 63 d0 e3 bc ba 18 5a 3d
       -0.12656862 0.09564983 -0.027809327 0.053246237
0000d0 37 68 5f bd 01 65 18 bd ea 23 d0 bd 08 31 91 bd
       -0.054542746 -0.0372057 -0.101631 -0.0708943
0000e0 c1 69 d3 bc 5b 36 ed 3c 9a ca 40 3c dc 69 f8 bd
       -0.025807263 0.028956583 0.011767054 -0.12129566
0000f0 b6 9c b3 3c 39 3f 2c 3d fb 89 7b bc fa b5 dd 3c
       0.021925312 0.04205248 -0.015352721 0.027064312
000100 63 ff bc bd 8e 6e 1b 3c fc 75 0c 3c 78 35 a8 bc
       -0.09228399 0.0094868075 0.008573052 -0.020533308
000110 0b 66 66 bd d1 62 c2 3c 48 9d 81 bd b9 54 06 bd
       -0.05624966 0.02372876 -0.06328827 -0.03279564
000120 5f eb 5b bd 22 ea 07 bd 7a 56 8e 3c 2e c1 5d 3c
       -0.053691264 -0.03318227 0.01737522 0.013534827
000130 bb 32 2a 3b 8b 2a e8 bc ad 7c f6 bd 03 ff f1 bd
       0.002597018 -0.028340599 -0.12035499 -0.11816218
000140 b8 a9 02 be 49 84 9c bd c8 31 59 bd 52 3f 7f bd
       -0.12760055 -0.07642419 -0.05302599 -0.062316246
000150 02 ed 9a 3c be ce 8e bd b6 63 8c bd 0b 67 df 3e
       0.018911842 -0.06973027 -0.06854956 0.43633303
000160 5f f5 eb bc 47 62 ad bd dc b8 9d bd 88 fe 04 bc
       -0.028803525 -0.084660105 -0.07701275 -0.008117326
000170 18 97 20 bc 83 46 72 bb 4d 20 39 3f 2f 09 35 bc
       -0.009801649 -0.0036968298 0.7231491 -0.011049553
000180 f7 c1 dc bd 65 52 a6 3d c0 7e b1 bd 9c 5a 4b 3d
       -0.10779183 0.08121184 -0.08666754 0.04964696
000190 2b a6 9b 3d 70 13 8c bd 9b 1f ca bd 32 e6 34 bc
       0.076000534 -0.06839645 -0.098693095 -0.011041211
0001a0 a7 ce 59 bc 60 44 38 3d 7d 06 b0 bd b6 ed 89 3c
       -0.013293899 0.044987082 -0.085949875 0.016836982
0001b0 a9 2a 8f 3c cc e5 83 bd b2 6a 60 bd 3f cf 89 bd
       0.017476397 -0.06440315 -0.054789253 -0.06728982
0001c0 c9 ee 16 3c 04 d4 81 bd c5 c1 9a 3e 2d 11 37 3e
       0.009212204 -0.06339267 0.3022596 0.17877646
0001d0 14 25 77 bd 0b b7 57 bd 0d cc cf bd 27 68 6a bd
       -0.060338095 -0.052664798 -0.101463415 -0.057228234
0001e0 76 8a f8 bc d6 b2 8d bc 8a f2 8b 39 77 cb 33 be
       -0.03033946 -0.01729719 0.00026692852 -0.17558084
0001f0 c3 ef c9 bd 16 40 64 bd fe b8 a7 3c b3 73 03 bd
       -0.09860184 -0.05572518 0.020473953 -0.03209276
000200 6a 24 e2 bc a5 92 10 bd 6d 42 87 bc a8 91 16 bb
       -0.027605254 -0.0352961 -0.016511166 -0.0022975001
000210 17 9c 8a bd 54 92 ac bd e5 2b 3d 3c 8e 56 dc bd
       -0.06768053 -0.084263474 0.01154611 -0.107586965
000220 b3 7e 5c 3c b6 ab e9 bd 5c 64 0b bd f9 ff 19 bd
       0.013457942 -0.114097044 -0.034031257 -0.03759763
000230 28 10 a7 3c f2 34 1d bd 2d 49 81 bd 7b ad db bb
       0.020393446 -0.03838057 -0.06312785 -0.00670403
000240 bb ab 68 3c 7c fc 1a bd 39 a3 e0 bd 62 a4 f2 bd
       0.0142011 -0.037838444 -0.10968632 -0.1184776
000250 4f 12 ed 3c a6 0d 6b bd dc 09 bf 3d 30 60 35 bd
       0.028939394 -0.057386063 0.093280524 -0.044281185
000260 36 58 68 bd 18 e3 8e bd 52 b3 88 bc a4 a3 06 bd
       -0.05672475 -0.069769084 -0.01668707 -0.032870904
000270 15 05 5d bd b6 5e 32 3d eb 2f 98 bc 44 83 f3 3b
       -0.053959925 0.043547355 -0.018577537 0.0074314196
000280 e0 83 13 bd a4 62 89 bd 79 ef 6a bc ea 66 ac bc
       -0.036014438 -0.06708267 -0.014339321 -0.021045167
000290 a0 06 c3 3c 98 a4 13 bc 2c 0a 0a be b5 fb 38 bc
       0.02380687 -0.00901141 -0.13480443 -0.01129048
0002a0 7c 56 9d bd 0d 48 92 3c 13 7d 94 bd fd d0 99 bd
       -0.07682511 0.017856622 -0.072504185 -0.075105645
0002b0 93 9a a3 bd 76 36 24 bd 7e 73 48 3d d5 4f 23 3e
       -0.07988467 -0.040091 0.048938267 0.15948422
0002c0 32 92 6a bd 27 7e a9 bd a5 82 19 bd 21 d9 9c bd
       -0.05726833 -0.08276015 -0.037478108 -0.076586016
0002d0 af e7 91 bd 9e 4a a6 3d c4 c7 b5 bb d3 a7 ae 3e
       -0.07124268 0.08119701 -0.0055474956 0.34112415
0002e0 96 ac e1 bc c5 69 30 3b f8 8b b7 bd 3f 0c 25 3d
       -0.027548116 0.0026918512 -0.08962244 0.040294882
0002f0 75 e6 01 3d ca ed 2d 3d 87 75 3a bd 98 73 3b 3e
       0.03171392 0.0424631 -0.04552224 0.18305814
000300 6c 72 13 bd 12 d2 db 3c 46 b6 66 bd 65 d1 08 be
       -0.035997793 0.026833568 -0.056326173 -0.13361128
000310 24 f2 1a bd 55 c6 39 bd 1b 89 23 bd cd b2 bb bd
       -0.03782858 -0.04535516 -0.039925676 -0.09164963

weight f4 [2, 200]
000000 fa 77 85 bd f1 31 2d bd a7 1b 18 bd e8 d5 08 bd
       -0.06517024 -0.042283956 -0.037135746 -0.033407122
000010 7e b4 90 bd 3d 99 a1 bd 5b 9d f5 3c 28 c7 5f 3b
       -0.07065676 -0.07890556 0.02998226 0.0034145806
000020 69 f3 ed bb 59 49 23 bc a2 3b 2f bd 88 51 05 3d
       -0.007261683 -0.009966218 -0.04278148 0.032548457
000030 18 07 af bc 8b ac c1 bc 95 a2 14 3d 4e 61 b1 3c
       -0.021365687 -0.023641845 0.036287863 0.021652844
000040 f8 44 cf bc 61 ec 3d bd 9c 1a 6a bd 95 9b ff 3c
       -0.025301442 -0.046368007 -0.057154283 0.031202117
000050 b5 d8 23 bc 4c 09 84 3c 84 f6 03 3c 6e ca 87 39
       -0.010000397 0.016117714 0.008054379 0.00025900028
000060 35 e6 37 3c a7 56 3e bd b1 e9 35 bb cb 72 17 bd
       0.011224319 -0.046469357 -0.00277577 -0.03697471
000070 e4 22 c4 3c 54 16 5e 3d 3b e2 08 bc 41 34 27 3d
       0.023942418 0.054220513 -0.008354719 0.040821318
000080 0a 96 ac 3c 95 f9 85 bc d5 67 c5 bc 98 53 87 3c
       0.021067638 -0.016354362 -0.024097363 0.016519353
000090 d6 b4 57 3d b4 fc 90 3c 69 76 4f bd 7a 02 61 3c
       0.052662693 0.017698623 -0.050650034 0.013733501
0000a0 ac 31 ef 3c 60 28 8e bc c4 e3 45 bd 06 12 9e 3c
       0.02919849 -0.017353237 -0.048312917 0.019295704
0000b0 8c 6b b3 bd a5 20 d7 bc 78 29 a7 bd 54 af d9 3c
       -0.08760747 -0.026260683 -0.081622064 0.02657286
0000c0 7c 63 18 3d d6 a6 98 bd d6 c9 8c bc b2 4e 39 bd
       0.03720425 -0.074536964 -0.017186087 -0.045241065
0000d0 19 3f 0c bd 17 9d 6f bd 87 18 cd 3c eb a0 32 3c
       -0.034239862 -0.058499422 0.02503611 0.010902624
0000e0 87 3b cd b8 22 99 e4 bb 60 7a a6 3c 38 bc e0 3c
       -9.7862496e-05 -0.0069762627 0.020322025 0.0274335
0000f0 a4 81 3d bd f6 c9 05 bc 74 e3 6f 3d 07 41 c0 3b
       -0.046266213 -0.008165827 0.058566526 0.005867127
000100 f4 86 03 3c 39 cd 48 bd 0c db 43 3c 1b 84 0a 3c
       0.008027781 -0.04902384 0.01195408 0.008454348
000110 5b ed 88 bc 6b e5 06 bd e8 06 0d 3d 65 f3 41 3d
       -0.016714742 -0.032933634 0.034430414 0.04735126
000120 da f3 1b bc d2 12 f4 bc cd 94 05 bb b9 85 0f bd
       -0.009518588 -0.02979413 -0.0020382882 -0.035039637
000130 c6 16 95 3c 6f 57 7c bd 81 06 73 bd cf c1 1d 3d
       0.018199336 -0.06160682 -0.059332374 0.03851491
000140 d5 23 85 3c c6 fc e6 bb 6f e4 43 3d 17 7a 91 3d
       0.016252438 -0.007049176 0.047825273 0.07103365
000150 36 98 9b 3c c3 c3 52 3c 13 a0 21 3d 4c e1 be bd
       0.018993478 0.012864056 0.0394593 -0.09320316
000160 95 3b 7a 3b 88 fc e5 3c 99 e0 33 bb bc 9c c3 bc
       0.0038182486 0.028074518 -0.0027447103 -0.023878448
000170 1e c4 22 3c 01 7c a9 bc 0f 3b ca bd c5 d8 74 bc
       0.009934453 -0.020689012 -0.09874546 -0.01494426
000180 91 3b 1c bd 95 42 70 bd cd ff a9 3c 55 2b 23 3d
       -0.038142744 -0.058657248 0.020751858 0.039836247
000190 fe ee a4 bd dc 36 9a bc cd 16 eb bc 30 aa 4e 3b
       -0.08053397 -0.018824987 -0.028697396 0.0031534545
0001a0 bd ad 10 bd ec eb 23 3d 62 c1 34 3d 01 49 f5 3c
       -0.03532194 0.040019915 0.044129737 0.029942038
0001b0 33 73 74 bd 08 95 0e bd eb 70 09 bd 59 dd b4 3b
       -0.059680175 -0.034810096 -0.033554953 0.0055195508
0001c0 fe 58 41 bd d7 3d 2b 3c 4e 85 a1 bd a7 28 ad bd
       -0.04720401 0.0104517555 -0.07886754 -0.084550194
0001d0 bb b0 28 bc 1a 51 d1 3c 6f 22 f4 3a 10 9d b9 bc
       -0.010296042 0.025551368 0.0018625985 -0.022657901
0001e0 5a 62 40 bd 48 5d 65 bd 23 c8 1c bc cc d4 6b bd
       -0.046968795 -0.055997163 -0.009569201 -0.057575986
0001f0 12 70 3a 3d ff 85 5c 3c d5 49 48 bb 60 66 a7 3c
       0.045517035 0.0134596815 -0.0030561585 0.020434558
000200 c5 5c b0 bb 0e 0e 06 3d cf 95 a9 bc 26 5a 22 3d
       -0.0053821527 0.032728247 -0.020701317 0.039636753
000210 0a 91 45 bc a3 25 d1 3c 83 5b 93 3d 38 d2 e7 ba
       -0.012058506 0.025530642 0.07195189 -0.0017686551
000220 ca 5d f7 bc e0 df d8 bb 7e 71 c7 bc 66 9c 87 bb
       -0.03019609 -0.006618485 -0.02434611 -0.004138517
000230 9e cd 33 bc ca 9f da bc 27 c3 ac 3b 7a 32 3d bd
       -0.010974316 -0.026687521 0.0052722874 -0.046190716
000240 31 87 21 bd 1c 7b 88 3c f3 13 b8 3b ae 2c e0 3b
       -0.03943557 0.016660266 0.0056176125 0.0068412637
000250 62 f3 d6 bb 12 b2 20 3d 00 a4 56 bd cc 52 66 bc
       -0.006559775 0.03923232 -0.052402496 -0.014057826
000260 99 56 25 3d 7b ac 97 bd 52 f2 ab bc 7b 60 b4 3c
       0.04036579 -0.07405945 -0.02098957 0.022018662
000270 63 17 f3 bc 48 b4 03 bd 89 64 d1 3c af 1f 51 3d
       -0.029674238 -0.03215435 0.025560634 0.051055606
000280 b8 f8 06 3c a2 6b 7a 3d cf 70 12 bd 22 02 32 bd
       0.00823801 0.061137803 -0.035752114 -0.043459065
000290 44 d3 44 3d d0 3c 2f bb b4 a4 3d bd 2d d4 b0 ba
       0.04805304 -0.0026739128 -0.04629965 -0.0013490968
0002a0 e6 27 2a bd 3c 5c db bb 74 e6 1e bc 7c 8f 42 bd
       -0.041541956 -0.006694345 -0.009698499 -0.04750012
0002b0 da f1 03 3c 6d 4f 8a bd e3 f1 3d 3d c0 b3 99 bd
       0.008053267 -0.067534305 0.04637326 -0.07504988
0002c0 f9 75 61 3c 20 9d 20 bc 90 b4 4e 3c 0c ad ce 3c
       0.013761037 -0.0098030865 0.012616292 0.025229
0002d0 f5 e7 06 3d bf bf a1 bd 83 21 9a bc 2e 46 a7 bd
       0.032936055 -0.07897901 -0.018814808 -0.081676826
0002e0 9a 86 c7 3c 72 87 26 3d 5d 73 3d bb 6a 2f 36 3d
       0.024356175 0.040656514 -0.0028907873 0.04447881
0002f0 66 25 0b bd 31 53 a0 3c 98 cd fb 3c 67 eb 9d bd
       -0.033971213 0.019570919 0.030737683 -0.07710915
000300 7c 99 6f 3d e0 88 62 bd c3 cd 0a bd 1b 5a 2f 3d
       0.058495983 -0.055306315 -0.033887636 0.04281054
000310 47 2e 34 bd 19 1c ee 3c fe 5c dc bb d2 bc db 3b
       -0.043989446 0.029066132 -0.0067249527 0.0067058587
000320 13 6d 86 bd 4d 19 86 bd 55 12 35 bd a3 a6 4a bd
       -0.06563773 -0.065477945 -0.044206936 -0.049475323
000330 58 56 24 bd 04 eb a1 bd a6 68 7a 3d ce fb 2c bb
       -0.040121406 -0.07906154 0.061134957 -0.0026395204
000340 18 fd 8c 3b c9 74 ae bc 4f 04 2d bd b1 3e 8f 3d
       0.004302632 -0.021295922 -0.042240437 0.06994379
000350 20 d0 48 bb 4a 96 30 bd 12 20 11 3d f2 d6 31 bd
       -0.003064163 -0.043112077 0.035430975 -0.04341788
000360 0e de c6 bc c3 58 89 bc 31 6d 3e 3d f3 49 c8 3c
       -0.024275806 -0.016765958 0.04649085 0.024449324
000370 38 61 f8 3c ba 7b 52 bd 72 0f 37 3c 5b f7 54 3a
       0.030319795 -0.051387526 0.011173116 0.0008124017
000380 93 4b 22 bd 1d 38 7e 3c 0e d0 c5 bb d1 21 2f 3d
       -0.039622854 0.015516308 -0.006036765 0.04275686
000390 26 a9 89 bd 07 09 82 3d e0 0e ec 3a 23 4d 20 3d
       -0.06721716 0.06349378 0.0018009804 0.039136063
0003a0 83 1e b4 bb 23 db 29 3c aa d0 63 bd 71 dc 3b 3c
       -0.0054968013 0.010367188 -0.05561892 0.011466132
0003b0 f7 35 43 3d 63 01 90 3c d6 db 59 bd a0 db 9e 3d
       0.047658887 0.017578786 -0.053188168 0.07756734
0003c0 d7 a6 ee 3c e5 e2 f2 3b d7 9d 5c bb bd cb 03 bd
       0.02913229 0.007412302 -0.0033663416 -0.03217672
0003d0 cf 9c b8 bd 53 56 29 3d c8 ab a7 bd 6a f7 66 3d
       -0.09014284 0.04134209 -0.081870615 0.056388296
0003e0 a0 ec 8b 3d cc 5e 99 bd 66 9d 8c bc af 20 37 bd
       0.06832242 -0.07488784 -0.017164897 -0.044708904
0003f0 da 5f fc bc 61 3a 45 bd 28 97 95 3b 31 b2 9f 3c
       -0.030807424 -0.048151378 0.0045651384 0.019494148

bias f4 [2]
000000 ae 58 a1 3c 79 82 e7 3c
       0.019695606 0.028260456
