_examples/Simulation/MonoCRN/Q_function_Multinomial.pt (torch, 330703 bytes, 8 tensors)

weight f4 [200, 4]
0	0xbe3df88f	-0.18551849
1	0x3e9e9195	0.30970445
2	0xbdf27b7f	-0.11839961
3	0xbe5de301	-0.21668626
4	0xbe8e9bc7	-0.27853224
5	0x3da24ee6	0.07925205
6	0xbdb5c450	-0.08875334
7	0xbe5cb156	-0.21552023
8	0xbda22018	-0.07916278
9	0x3e6d9698	0.23201978
10	0xbeb4dd7d	-0.35325232
11	0xbcb611a2	-0.022225205
12	0xbd51f147	-0.05125549
13	0xbf096ec7	-0.5368466
14	0x3e6d2152	0.23157242
15	0xbee588dc	-0.44830978
16	0x3e9353eb	0.28774962
17	0xbf06e31c	-0.5269029
18	0x3df97aa0	0.12181592
19	0xbea28291	-0.3174024
20	0xbf20821d	-0.6269854
21	0x3eb9d7af	0.36297366
22	0xbede595c	-0.4342755
23	0xbea0441f	-0.31301972
24	0xbe329b43	-0.1744204
25	0xbddaafd3	-0.10678067
26	0x3de213d6	0.1103894
27	0xbe027359	-0.12739314
28	0xbe7ea817	-0.24868809
29	0x3e507552	0.20357254
30	0x3ec61906	0.38690966
31	0xbe8eea22	-0.27913004
32	0xbd8f6aa6	-0.070027635
33	0x3edcd830	0.43133688
34	0x3e6087bb	0.21926777
35	0x3ebfb731	0.3744445
36	0xbe025590	-0.12727952
37	0x3dcd26a8	0.10017139
38	0xbe19448c	-0.14967555
39	0x3dbc4450	0.09192717
40	0xbd686063	-0.056732547
41	0xbee17e36	-0.44041604
42	0xbd836076	-0.06414883
43	0x3f24567d	0.6419447
44	0x3efc7c83	0.49313745
45	0x3e2ff323	0.17182593
46	0x3eed2f0d	0.4632496
47	0xbf1b51be	-0.60671604
48	0x3c0c89cb	0.008577774
49	0xbe8d396a	-0.27582866
50	0x3eb25c28	0.34835935
51	0x3e3d145c	0.18464798
52	0x3ef456ac	0.47722375
53	0x3e91f042	0.28503615
54	0xbdefa366	-0.11701088
55	0xbf025cd3	-0.5092289
56	0xbf289021	-0.65844923
57	0x3e17392b	0.14767902
58	0x3eb1f466	0.34756774
59	0x3ec97ca6	0.39352912
60	0x3d562b72	0.052287526
61	0xbe5b07bc	-0.21389669
62	0xbddeaaed	-0.10872445
63	0xbf0cd6c8	-0.5501523
64	0x3e8ce5ce	0.27519077
65	0x3e861486	0.26187533
66	0xbf091539	-0.5354801
67	0x3d05818c	0.03259425
68	0x3e085bf8	0.13316333
69	0x3d9ebacc	0.077504724
70	0xbf1309ad	-0.5743664
71	0x3d96ec32	0.073692694
72	0xbd2f5b49	-0.042811666
73	0xbea202fb	-0.316429
74	0x3e915117	0.2838218
75	0x3e302ffd	0.17205806
76	0xbf0ee142	-0.55812466
77	0x3e11f52b	0.1425368
78	0xbe0fde05	-0.14049537
79	0x3e85e4ef	0.26151225
80	0x3e741fa5	0.23840196
81	0xbf040539	-0.5157047
82	0x3e7c0aaa	0.24613443
83	0x3eb51d20	0.35373783
84	0xbedb654c	-0.4285072
85	0x3dfa028d	0.12207518
86	0xbe420b4b	-0.1894962
87	0x3f163d79	0.5868755
88	0x3efd0bbf	0.49423024
89	0x3e097952	0.13425186
90	0xbe53c8d1	-0.20682074
91	0xbefabc50	-0.48971796
92	0xbf04cc9b	-0.51874703
93	0xbe3af2cd	-0.18256684
94	0x3e5fe44c	0.21864432
95	0xbeed26ac	-0.46318567
96	0xbdd1cc1c	-0.10244009
97	0x3e60d11f	0.21954773
98	0xbec17476	-0.37784165
99	0x3ed59649	0.4171622
100	0xbf4da0e1	-0.80323607
101	0x3edc70a9	0.43054703
102	0xbdc8ef52	-0.09811272
103	0x3dd5b513	0.10434928
104	0x3e21f89b	0.15817492
105	0x3e0458b0	0.12924457
106	0xbd21599c	-0.0393921
107	0xbeb496c8	-0.35271287
108	0xbf1b185a	-0.6058403
109	0xbd8a5263	-0.06753995
110	0x3ed0e272	0.40797764
111	0x3dfc2fed	0.123138286
112	0x3eaafb27	0.3339474
113	0x3ea4efa3	0.32214078
114	0xbe9ca4c5	-0.3059446
115	0xbdbd3be6	-0.0923994
116	0x3e1e2da3	0.15447097
117	0x3ee047d0	0.4380479
118	0xbee0e743	-0.4392644
119	0xbd81fd50	-0.06347144
120	0x3bc71106	0.0060750274
121	0xbc44dc86	-0.0120154675
122	0x3ec678eb	0.38764128
123	0xbf162aa9	-0.58658844
124	0xbf13fbc8	-0.5780606
125	0x3d7f37e0	0.062309146
126	0x3eaaf633	0.3339096
127	0xbe2e291d	-0.17007871
128	0xbec336fe	-0.38127893
129	0xbd2f923e	-0.042864077
130	0xbe0c23c1	-0.13685514
131	0xbebbd63b	-0.36686882
132	0xbe6d84a8	-0.23195136
133	0xbd6ee0d0	-0.058319867
134	0x3ce93480	0.028467417
135	0xbdc37928	-0.09544593
136	0x3e908d0e	0.28232616
137	0xbe59a1f4	-0.21253186
138	0x3de5404a	0.11193903
139	0x3e4aec7f	0.19816779
140	0x3ee9df08	0.45677972
141	0xbf25fc47	-0.6483807
142	0x3df17387	0.11789613
143	0x3e0b9cda	0.13634053
144	0x3ed91937	0.4240205
145	0x3e9f444d	0.31106797
146	0x3e1499c7	0.14511786
147	0xbe927f1f	-0.2861261
148	0xbee1e124	-0.4411708
149	0xbe941fd7	-0.28930542
150	0xbd64ae45	-0.05583026
151	0x3e8f9d08	0.28049493
152	0x3d103882	0.03521014
153	0xbe86d0ba	-0.2633112
154	0x3f058582	0.5215684
155	0x3e032ae4	0.1280933
156	0xbcfcdf88	-0.030868307
157	0x3f23eab5	0.6403001
158	0x3e7d960b	0.24764268
159	0xbf0a9dd7	-0.54147094
160	0xbecc1a32	-0.39863735
161	0xbebeccb8	-0.37265563
162	0xbd9f9158	-0.07791394
163	0xbef358a0	-0.47528553
164	0x3ef148a0	0.4712572
165	0x3e4410e2	0.19147065
166	0xbf1daba7	-0.61590046
167	0x3e1ddaa2	0.15415433
168	0x3ea6aac6	0.32552165
169	0x3cadda41	0.021222236
170	0x3e2ea463	0.17054896
171	0x3ece8e37	0.40342876
172	0xbef392b2	-0.47572857
173	0x3e0a057a	0.13478652
174	0x3e3166fc	0.17324442
175	0xbe02249b	-0.12709276
176	0x3e2f6d11	0.1713145
177	0xbeeb6017	-0.45971748
178	0x3eca0551	0.3945718
179	0xbdab4e94	-0.08364597
180	0xbea9b270	-0.3314395
181	0x3ed59e81	0.4172249
182	0x3ec42bac	0.3831457
183	0xbeb3af29	-0.35094574
184	0xbea2fe3e	-0.31834596
185	0x3ebd6705	0.3699266
186	0x3e46ceb5	0.1941479
187	0xbe49d9ae	-0.19711944
188	0x3e9f32b3	0.31093368
189	0xbed49398	-0.41518855
190	0xbc91cf4d	-0.017799044
191	0x3ebaac58	0.36459613
192	0xbeae1dde	-0.34007162
193	0xbe6f3cfa	-0.23363104
194	0x3ea523a5	0.32253757
195	0x3ec2b916	0.38031834
196	0x3ecae5eb	0.39628538
197	0x3e730240	0.23731327
198	0xbdccb26f	-0.09994971
199	0xbef9fde0	-0.48826504
200	0xbea0e7a5	-0.3142673
201	0x3df1188a	0.117722586
202	0x3f130a54	0.57437634
203	0xbe4b5455	-0.19856389
204	0x3e1f7179	0.1557063
205	0xbec1d977	-0.37861225
206	0x3ebabefc	0.36473835
207	0x3d90543b	0.07047316
208	0x3df9b5f2	0.121929064
209	0xbe77b423	-0.2418981
210	0xbe518a79	-0.2046298
211	0xbedb19ed	-0.42793217
212	0xbe70eb8e	-0.23527357
213	0x3e59740a	0.21235672
214	0xbe415957	-0.18881737
215	0x3ed81925	0.42206684
216	0xbf19305b	-0.5983941
217	0xbc0797fd	-0.008275983
218	0x3d6f2cef	0.05839246
219	0xbc8eb66b	-0.017420968
220	0x3d518777	0.05115458
221	0xbf0815f2	-0.53158486
222	0xbe032795	-0.12808068
223	0xbc265829	-0.010152855
224	0x3f082b02	0.53190625
225	0x3d8d0605	0.06885914
226	0xbedf16ba	-0.43572026
227	0x3d142f6a	0.03617803
228	0x3f195af3	0.599044
229	0xbdcb6c2e	-0.09932743
230	0xbe6d79dd	-0.23191018
231	0x3e22be08	0.15892804
232	0x3ea51df4	0.32249415
233	0x3d1316db	0.03591047
234	0x3ea99f44	0.33129323
235	0xbe8d3389	-0.2757838
236	0xbabbd5a2	-0.0014330635
237	0x3e583d55	0.21117146
238	0xbf0b2e29	-0.5436731
239	0xbe8977b7	-0.26849148
240	0xbdb5551c	-0.08854124
241	0xbd05cffe	-0.03266906
242	0x3e9f7120	0.31140995
243	0xbef36956	-0.47541302
244	0xbee534c3	-0.44766816
245	0xbed2ff26	-0.41210288
246	0x3eb2cce9	0.3492196
247	0x3f26f413	0.6521618
248	0x3e92ca39	0.2866991
249	0xbe8b7a9b	-0.27241978
250	0xbf05730c	-0.5212867
251	0xbe472243	-0.19446664
252	0xbe896e88	-0.2684214
253	0x3e0d4fbd	0.13799949
254	0xbe37b5b4	-0.17940408
255	0x3f064f28	0.5246453

bias f4 [200]
0	0x3ea8726f	0.32899806
1	0xbe95f840	-0.29290962
2	0x3e3c85b5	0.1841038
3	0x3ef1b8c8	0.4721129
4	0xbd5defa3	-0.054183614
5	0xbdbba5c6	-0.09162478
6	0xbf01e485	-0.5073932
7	0xbe1bb426	-0.1520544
8	0xbc96213f	-0.0183264
9	0xbeffcb9a	-0.49960023
10	0x3d2c57e7	0.042076018
11	0xbef358ce	-0.4752869
12	0x3e9ef62d	0.31047192
13	0xbe17c8e0	-0.14822721
14	0xbed7c73a	-0.42144185
15	0xbe48b882	-0.19601634
16	0xbde65b9b	-0.11247941
17	0x3e851060	0.25989056
18	0xbf33cb60	-0.702322
19	0x3e888604	0.26664746
20	0xbe8ae36c	-0.27126634
21	0xbe0bf712	-0.13668469
22	0x3dccffb2	0.100097075
23	0x3ee67b76	0.45016068
24	0xbec9037b	-0.39260468
25	0x3e919c91	0.28439763
26	0x3d649348	0.05580452
27	0x3e1e96c7	0.15487204
28	0x3e1e919d	0.15485235
29	0x3e10904f	0.1411755
30	0x3e5961fa	0.21228781
31	0x3ed59778	0.41717124
32	0x3e4ccc64	0.19999844
33	0xbe0ba30c	-0.13636416
34	0x3e296169	0.16541065
35	0xbd4402ff	-0.04785442
36	0xbf04d210	-0.5188303
37	0x3eb2ed1d	0.34946528
38	0xbe507d1c	-0.20360225
39	0xbecfa4a8	-0.4055531
40	0xbeb98d48	-0.36240602
41	0xbe49b193	-0.19696645
42	0xbf088f47	-0.53343624
43	0x3edefe62	0.43553454
44	0xbe2fef1f	-0.17181061
45	0xbd993ec5	-0.074826755
46	0xbded1a00	-0.11577225
47	0xbe706981	-0.23477747
48	0xbe56cede	-0.20977351
49	0xbeec4014	-0.46142638
50	0xbe613ed0	-0.21996617
51	0x3da62982	0.08113386
52	0x3ec0c2b3	0.37648544
53	0xbdcabcb3	-0.09899273
54	0x3e6a1dc3	0.22862916
55	0x3e8ff0a4	0.28113282
56	0xbe629fe6	-0.22131309
57	0xbe6bbfeb	-0.2302243
58	0x3dcd9d46	0.10039763
59	0x3eef9cf8	0.46799445
60	0x3e114c19	0.14189185
61	0xbe4df82a	-0.20114198
62	0x3f0aad82	0.54171
63	0xbed32a69	-0.41243294
64	0xbe2dc48f	-0.16969512
65	0x3ef3c74a	0.47612983
66	0x3ec7ed86	0.39048404
67	0x3e61f562	0.22066262
68	0x3e059ddf	0.13048504
69	0x3d774f36	0.060378276
70	0xbee00836	-0.43756264
71	0xbd657e75	-0.056028802
72	0xbd9abd33	-0.07555618
73	0x3de11bfa	0.10991664
74	0x3eae6b76	0.3406636
75	0x3e9367f3	0.28790244
76	0x3caa8fe5	0.020820567
77	0xbc869da0	-0.016432583
78	0x3e128bee	0.14311191
79	0x3d8a3163	0.06747701
80	0xbe69fecb	-0.22851102
81	0xbdf709ff	-0.120624535
82	0x3e0d16cc	0.13778228
83	0x3e9248df	0.2857122
84	0x3ea4d175	0.32191053
85	0x3e6d0655	0.23146947
86	0x3eb69370	0.3565936
87	0x3e0c2d3a	0.13689128
88	0xbe8dcbe5	-0.27694622
89	0xbe3c0556	-0.1836141
90	0xbe9d2cbe	-0.30698198
91	0xbe4b9c15	-0.1988376
92	0x3e9d8234	0.307634
93	0xbf0694ef	-0.52571005
94	0x3d8173e0	0.063209295
95	0x3ea7153e	0.32633394
96	0x3ee10983	0.4395257
97	0x3e7bb3ad	0.2458026
98	0xbb0dd6cd	-0.0021642924
99	0x3da14f65	0.078764714
100	0x3ddf6f25	0.10909871
101	0x3e9c07b8	0.3047464
102	0xbe9c6b47	-0.30550596
103	0x3ef51189	0.4786494
104	0x3d96a85d	0.073563315
105	0x3d6095f6	0.054830514
106	0xbe60b99f	-0.21945809
107	0xbf00eae6	-0.50358427
108	0xbec6de3f	-0.38841435
109	0x3ed4827a	0.41505796
110	0xbdd849d0	-0.105609536
111	0x3d0ef979	0.034905884
112	0xbe0d219e	-0.13782355
113	0x3e65cd13	0.22441511
114	0x3e185d3d	0.14879318
115	0x3ea66efd	0.32506552
116	0xbd01b4e2	-0.031666644
117	0x3e64a5c0	0.22328854
118	0x3ee0e6ef	0.43926188
119	0x3bee4000	0.007270813
120	0x3d8356a9	0.064130135
121	0x3db82385	0.0899115
122	0x3e114100	0.14184952
123	0xbb68ae36	-0.0035504228
124	0x3b65b547	0.0035050677
125	0xbddee514	-0.10883537
126	0x3d9a31a0	0.075289965
127	0x3eb37ae4	0.35054696
128	0x3db2f799	0.08738632
129	0x3e4e8afb	0.20170204
130	0xbe0037d9	-0.12521304
131	0xbe403d2a	-0.18773332
132	0xbeba2450	-0.3635583
133	0xbe90b7e0	-0.28265285
134	0x3edd1816	0.4318244
135	0xbd13595c	-0.03597389
136	0xbd57ab15	-0.05265339
137	0xbe9f846c	-0.31155717
138	0x3e33707c	0.17523378
139	0xbea2025b	-0.31642422
140	0x3d26ff1e	0.040770642
141	0xbe4e1302	-0.20124438
142	0x3ed3c4d8	0.41361117
143	0xbe57bc91	-0.21068026
144	0x3de4a53d	0.11164329
145	0x3deff2b3	0.11716213
146	0x3d9d61bd	0.07684658
147	0x3e8416d4	0.25798666
148	0x3e03d32e	0.12873527
149	0x3cb3c8f9	0.021946417
150	0x3e66ecfd	0.22551341
151	0xbeab6e7f	-0.3348274
152	0xbf1acd6d	-0.60469705
153	0xbea8c187	-0.3296015
154	0x3e00a243	0.12561898
155	0x3ed88a6e	0.42293113
156	0xbecd44e8	-0.40091634
157	0xbed3a2ac	-0.41335046
158	0xbf0b3e6f	-0.5439214
159	0x3e8bf1ec	0.2733301
160	0xbdecbd88	-0.11559588
161	0x3e7a29d2	0.24430016
162	0x3d601199	0.054704282
163	0xbee61c60	-0.44943523
164	0xbd60c8ef	-0.054879125
165	0xbed1f0ba	-0.41003972
166	0xbee746e3	-0.4517127
167	0xbd9bb426	-0.0760272
168	0x3e4ca487	0.19984637
169	0x3e077efe	0.13232037
170	0xbe0d632a	-0.1380736
171	0x3e119277	0.14216028
172	0xbbf351b3	-0.007425511
173	0xbd1ed22b	-0.03877465
174	0xbed1a2b3	-0.40944442
175	0x3e8b2771	0.2717853
176	0xbe50ff6c	-0.20409936
177	0xbd8f01c4	-0.06982759
178	0x3d9f1b4d	0.07768879
179	0xbeb187b8	-0.34673858
180	0xbce77868	-0.028255656
181	0xbeabb166	-0.33533782
182	0xbe6c11e5	-0.23053701
183	0xbe71e6bb	-0.23623173
184	0xbe94a05f	-0.29028603
185	0x3ed86041	0.42260936
186	0xbe388fe4	-0.1802364
187	0x3eb6bae4	0.3568946
188	0x3d83db0e	0.06438266
189	0x3eb86cbb	0.36020455
190	0x3e8f6f82	0.2801476
191	0x3e7d46c3	0.24734025
192	0x3e22b4e8	0.15889323
193	0xbe4e1e00	-0.20128632
194	0x3e5a9d9b	0.21349184
195	0xbe64df06	-0.22350702
196	0x3ddcb3d8	0.1077649
197	0xbd0d1bc2	-0.0344503
198	0xbeb46832	-0.35235745
199	0x3e1fd920	0.1561017

weight f4 [200, 200]
0	0xbd1938b1	-0.03740758
1	0x3e373421	0.1789098
2	0x3dd8b0a0	0.105805635
3	0xbca4c9b9	-0.02011572
4	0x3de99095	0.1140453
5	0xbd41ec82	-0.047344692
6	0x3db173f3	0.08664694
7	0xbe2f13dd	-0.17097421
8	0xbc78d0ef	-0.015186532
9	0x3b3ed280	0.0029117167
10	0x3de00740	0.10938883
11	0x3d0865a0	0.033300042
12	0xbd76d418	-0.060260862
13	0x3d977f06	0.07397275
14	0x3d42c031	0.04754657
15	0x3c87ec3e	0.016592141
16	0x3db8a08a	0.090149954
17	0x3d92b44f	0.071632974
18	0x3d8f647d	0.070015885
19	0x3dd9429e	0.10608409
20	0x3da2cfdb	0.079498015
21	0x3e91fd65	0.28513637
22	0x3e589525	0.21150644
23	0xb8985fc4	-7.2657625e-05
24	0x3b9b628f	0.0047419737
25	0xbda6ca18	-0.08144015
26	0x3d5b469a	0.053534128
27	0xbdc8390a	-0.09776504
28	0xbbd479f0	-0.0064842626
29	0x3d2df165	0.04246654
30	0xbe187fe0	-0.1489253
31	0xbe51016c	-0.20410699
32	0x3d21d1f8	0.039506882
33	0xbd718dd1	-0.058973137
34	0xbcf3b080	-0.029747248
35	0x3db72733	0.089430235
36	0x3bb38f3e	0.0054797223
37	0x3e081caa	0.13292184
38	0xbd8bb15a	-0.068209365
39	0xbde3d0d4	-0.11123815
40	0xbc6ee918	-0.014581941
41	0x3dbd0352	0.09229149
42	0xbbc1d10d	-0.0059148134
43	0xbdee151d	-0.11625121
44	0x3ddfef2d	0.10934291
45	0xbe56b120	-0.20966005
46	0xbd287202	-0.04112435
47	0x3e016e52	0.1263974
48	0x3d8d3bc1	0.06896163
49	0xbc7a495c	-0.015276279
50	0xbe857ff0	-0.2607417
51	0xbd1459bc	-0.03621839
52	0x3dd02053	0.10162415
53	0x3e14abcc	0.1451866
54	0x3e0fada8	0.14031088
55	0xbc8b0406	-0.016969692
56	0x3dfdca35	0.123920836
57	0x3e4b18fc	0.1983375
58	0xbda0ad0b	-0.07845505
59	0x3e4f8bcd	0.20268174
60	0xbe08c07a	-0.13354674
61	0xbd5ec2c0	-0.054384947
62	0x3e50d521	0.20393802
63	0x3d42b8b6	0.047539435
64	0xbde1829a	-0.110112384
65	0xbc846d0d	-0.01616528
66	0x3d137b1e	0.036006086
67	0xbd4653ca	-0.04841975
68	0x3d3eabfa	0.04655073
69	0xbd211f9a	-0.03933678
70	0xbd870fca	-0.065948084
71	0x3c91c5cc	0.017794512
72	0x3d3f0363	0.04663409
73	0x3d3156af	0.04329556
74	0x3e0b2247	0.13587295
75	0x3e7394ca	0.23787227
76	0x3e9117cb	0.28338465
77	0xbd3033d2	-0.04301817
78	0x3d8a762c	0.06760821
79	0xbe1ab1e3	-0.15106921
80	0x3e2920d2	0.16516426
81	0x3e2cabcb	0.16862409
82	0x3cc8f118	0.024529025
83	0x3d02d9d9	0.031946037
84	0x3d954125	0.07287816
85	0xbdecb8e1	-0.115587
86	0x3d885b4a	0.06658037
87	0xbde3291e	-0.11091827
88	0x3db7cde4	0.089748174
89	0xbcb96c37	-0.022634609
90	0x3da20ba6	0.07912378
91	0x3e1f04b7	0.15529142
92	0x3de8eb1f	0.11372971
93	0x3d944cfd	0.07241247
94	0xbc314712	-0.010820167
95	0x3cd96bf0	0.026540726
96	0x3db8f39c	0.0903084
97	0x3d5a76ea	0.05333606
98	0x3dd455ae	0.103679046
99	0xbe457d09	-0.19285978
100	0xbcf13847	-0.02944578
101	0x3c548760	0.012971729
102	0xbd73e78c	-0.059546992
103	0x3d9a9b7f	0.0754919
104	0x3d5c3222	0.053758748
105	0xbe438d9d	-0.1909699
106	0x3d7e69bc	0.062112555
107	0x3e1aa759	0.151029
108	0x3d7afc92	0.061276026
109	0xbdee755c	-0.11643478
110	0x3c1b2678	0.009469621
111	0x3ddf216c	0.108950466
112	0x3e409c56	0.18809637
113	0xbc49ca6b	-0.012316327
114	0x3e872a4b	0.26399454
115	0xbe4d1943	-0.20029168
116	0x3d49be60	0.04925382
117	0x3d5e92a5	0.05433907
118	0x3d5049eb	0.050851744
119	0xbdf59224	-0.11990765
120	0xbda8cdc2	-0.0824237
121	0xbd88353f	-0.06650781
122	0xbcbed850	-0.023296505
123	0x3d579c73	0.052639436
124	0xbe04bc6b	-0.12962501
125	0x3e11e951	0.1424916
126	0x3b952800	0.0045518875
127	0xbd44247e	-0.047886364
128	0x3dd31f0c	0.10308656
129	0x3cbcbbee	0.02303883
130	0x3bcb7f8b	0.0062102727
131	0xbd8c6b02	-0.068563476
132	0x3e0dc1e9	0.13843502
133	0x3d8a4cb5	0.06752912
134	0xbcb174b7	-0.0216621
135	0x3e1484b4	0.14503747
136	0xbdfd5ff5	-0.12371818
137	0x3df601a3	0.12012031
138	0x3d518b3d	0.05115818
139	0x3d6504e1	0.055912856
140	0x3e4a4f36	0.19756779
141	0xbd15951b	-0.03651915
142	0x3df76097	0.1207897
143	0x3cd1e639	0.025622474
144	0x3d3b2202	0.04568673
145	0x3e0c3719	0.13692893
146	0x3c819b4e	0.015821125
147	0xbd023878	-0.031792134
148	0x3e33fb7b	0.17576401
149	0xbd29f24f	-0.04149085
150	0x3cf648cb	0.030064007
151	0x3ddbffe8	0.107421696
152	0x3e007910	0.12546182
153	0x3df89f02	0.12139703
154	0x3c9d4619	0.019198464
155	0x3d87c07c	0.0662851
156	0xbca9bc46	-0.020719659
157	0x3e89a4e0	0.26883602
158	0x3e11b81b	0.14230387
159	0xbce04e80	-0.027381182
160	0xbd04106e	-0.03224223
161	0xbd8bfa54	-0.06834856
162	0x3e42cb5f	0.19022892
163	0x3ba51ce0	0.0050388426
164	0x3c8e8723	0.017398423
165	0x3eab59e6	0.33467025
166	0x3d1a2b5c	0.037639007
167	0xbe00897c	-0.12552446
168	0xbd14596f	-0.036218103
169	0x3e93d37c	0.28872287
170	0x3e7c22a2	0.24622586
171	0x3d87cb4e	0.06630574
172	0x3e4d9d10	0.20079446
173	0x3e13d4ae	0.144366
174	0x3f2fe0e5	0.68702537
175	0x3db6559c	0.089030474
176	0x3d52974c	0.05141382
177	0xbdc64920	-0.09681916
178	0x3b99aed1	0.004690029
179	0x3e9eef0d	0.31041756
180	0x3d57e820	0.052711606
181	0x3cc173c4	0.023614772
182	0xbe404fa0	-0.18780375
183	0xbda9af59	-0.08285398
184	0x3db01be6	0.08599071
185	0x3e03dd10	0.12877297
186	0x3e5d8664	0.21633297
187	0x3d1dfc2b	0.038570564
188	0x3dc481a6	0.09595041
189	0x3dd78f3b	0.10525366
190	0x3d213105	0.03935339
191	0x3e47aeee	0.19500324
192	0x3e197aac	0.14988202
193	0x3d8ae9e7	0.067828946
194	0xbda825c9	-0.08210332
195	0x3dd8e600	0.10590744
196	0x3ca21eb8	0.019790038
197	0x3e7ef754	0.24899036
198	0x3d68d02b	0.05683915
199	0x3dc8cdd1	0.09804881
200	0x3dfcf07c	0.12350556
201	0x3e2b4f6d	0.16729517
202	0x3e02a04b	0.1275646
203	0xbc79b2de	-0.015240399
204	0x3dd9fd2a	0.1064399
205	0xbdf72446	-0.120674655
206	0xbb8b8327	-0.004257578
207	0x3e10a3a4	0.14124924
208	0x3c87b4e7	0.016565753
209	0xbcd2d130	-0.025734514
210	0x3da96e95	0.08273045
211	0x3e034fc6	0.128234
212	0x3cf037dc	0.02932351
213	0x3e4e107f	0.2012348
214	0x3dc414f2	0.095743075
215	0x3d4cfe62	0.050047286
216	0x3dfb5623	0.12272289
217	0x3e029892	0.12753513
218	0xbe01c362	-0.12672189
219	0xbda941de	-0.08264516
220	0xbae08b71	-0.00171314
221	0x3ea0738d	0.31338158
222	0x3dec681c	0.11543295
223	0x3d019e49	0.031645093
224	0x3d1f8ce0	0.03895271
225	0xbdc49fe2	-0.09600808
226	0x3e249bd6	0.16075072
227	0x3d311635	0.04323407
228	0xbdae6147	-0.08514648
229	0x3d381607	0.044942882
230	0x3d3151f8	0.043291062
231	0x3d9a1b51	0.075247414
232	0x3cce2cc5	0.025167832
233	0xbb9d9c10	-0.004809864
234	0xbd3452a5	-0.04402413
235	0xbcea5cf1	-0.028608771
236	0x3dcf4f0c	0.10122499
237	0x3d65c7a6	0.056098603
238	0x3c77e09a	0.015129233
239	0x3c4fbfc3	0.012679997
240	0x3d62bf9e	0.05535852
241	0x3e10f478	0.14155757
242	0xbd2e9246	-0.042619966
243	0xbcab3812	-0.02090076
244	0x3e080dca	0.1328651
245	0x3db9f7f2	0.09080495
246	0x3d89661f	0.06708931
247	0x3da92437	0.082588606
248	0x3ca24253	0.019807016
249	0xba28d7f3	-0.00064408703
250	0x3df0985a	0.11747809
251	0xbcd26c0c	-0.025686286
252	0x3e0ef979	0.13962354
253	0x3dd2476e	0.102675304
254	0x3dcbab77	0.09944814
255	0x3d93087f	0.07179355

bias f4 [200]
0	0xbd978968	-0.07399255
1	0xbd8070f7	-0.06271546
2	0x3c9eb710	0.0193744
3	0x3bc015f0	0.00586199
4	0x3c249124	0.01004437
5	0x3d413e94	0.04717882
6	0xbdc8cddc	-0.098048896
7	0xbd56e432	-0.052463718
8	0xbe3859c9	-0.18003
9	0xbd3b5000	-0.04573059
10	0x3bb815da	0.0056178393
11	0xbd02a5d8	-0.031896442
12	0xbd4fca63	-0.05073012
13	0x3d5ac383	0.05340911
14	0xbd0762cc	-0.033053204
15	0xbd83b864	-0.06431654
16	0xbde3b11b	-0.111177646
17	0xbd97cd8e	-0.07412253
18	0x3d3c2e85	0.045942802
19	0xbd9ed98b	-0.07756337
20	0xbd737498	-0.059437364
21	0xbd103c17	-0.035213556
22	0xbcb567ce	-0.022144224
23	0xbd7e297a	-0.062051274
24	0xbd050084	-0.032471195
25	0x3c657baa	0.014006535
26	0xbdb7fda7	-0.08983927
27	0x3d528061	0.051391963
28	0xbd2ee8a6	-0.04270234
29	0xbd7477bc	-0.0596845
30	0x3c328e60	0.010898203
31	0xbd3309c7	-0.043710496
32	0xbd9781b5	-0.073977865
33	0x3cd20495	0.02563695
34	0xbde56206	-0.11200337
35	0xbd6ae4a6	-0.057346962
36	0xbcb071f9	-0.021538721
37	0x3d5da52b	0.054112595
38	0x3ba5e607	0.005062822
39	0x3d4a2dfa	0.049360253
40	0xbcabba4e	-0.02096286
41	0xbdd08171	-0.10180939
42	0x3a9cd1e9	0.0011964414
43	0xbda04f59	-0.07827634
44	0xbcee9252	-0.029122505
45	0x3c575131	0.013141916
46	0x3cef04b4	0.029177047
47	0xbc800e35	-0.015631774
48	0x3ca71417	0.020395322
49	0xbdaa365e	-0.08311151
50	0x3c3ce001	0.011528016
51	0xbccf55e6	-0.025309514
52	0x3d1a00cb	0.037598412
53	0x3c4ecee0	0.012622565
54	0x3d9dce30	0.07705343
55	0x3cb830ed	0.022484267
56	0xbd0455f8	-0.03230855
57	0xbc033e44	-0.008010451
58	0xbd0fea03	-0.03513528
59	0x3da7f2ec	0.082006305
60	0xbd957d96	-0.07299344
61	0xbcf32f38	-0.029685602
62	0xbd804629	-0.06263382
63	0x3c579c46	0.013159817
64	0xbdaf8dd9	-0.08571977
65	0xbc1564c0	-0.009118259
66	0xbd5dbcb1	-0.05413503
67	0xbd47355d	-0.048634876
68	0xbd98ea6e	-0.07466589
69	0xbd7dd338	-0.061969012
70	0xbd523f70	-0.05133003
71	0xbd732a22	-0.059366353
72	0x3d579901	0.05263615
73	0x3d50946d	0.0509228
74	0xbd10dc86	-0.035366558
75	0xbdc3e877	-0.095658235
76	0xbdad2535	-0.08454362
77	0xbba466f8	-0.0050171576
78	0xbdb92918	-0.09041041
79	0x3d76e122	0.060273297
80	0x3e0bf2a2	0.13666776
81	0xbb336587	-0.0027373747
82	0x3cee1a26	0.029065203
83	0xbd713919	-0.058892343
84	0xbd608512	-0.054814406
85	0xbda6f9f1	-0.08153141
86	0xbc9c709c	-0.019096665
87	0xbde83211	-0.113376744
88	0xbda2e876	-0.07954495
89	0x3d2c2435	0.042026717
90	0xbc7071ea	-0.014675597
91	0x3d7f152d	0.062276054
92	0xbda1a680	-0.078930855
93	0x3cefa6e3	0.029254382
94	0xbd843e35	-0.064571775
95	0x3c69a224	0.014259849
96	0xbcb58231	-0.022156807
97	0x3cc3994a	0.023876805
98	0xbda40f05	-0.08010677
99	0xbc759152	-0.01498826
100	0x3cbc4f5a	0.022987057
101	0xbcc8f72a	-0.02453192
102	0xbca935b2	-0.020655487
103	0x3c3dfcd9	0.011595928
104	0x39e6fa08	0.00044055306
105	0x3b219bc3	0.0024659492
106	0x3bebc78e	0.0071954196
107	0xbc2d7d70	-0.010588989
108	0x3d850778	0.06495565
109	0xbbdbe305	-0.0067104124
110	0xbd5f90ff	-0.05458164
111	0xbda189e2	-0.07887627
112	0x3bd7a401	0.00658083
113	0xbd65ba0f	-0.056085642
114	0x3d29baa8	0.041437775
115	0xbdb16089	-0.08660991
116	0xbd924d86	-0.07143693
117	0x3c5931dc	0.013256516
118	0x3b62db8b	0.003461572
119	0x3cc072a6	0.023492169
120	0xbdd01226	-0.101597115
121	0x3cd4fe87	0.026000274
122	0xbd8b55a4	-0.06803444
123	0x3bb00d09	0.0053726477
124	0xbc0a210b	-0.00843073
125	0xbd633411	-0.055469576
126	0xbd72c109	-0.059266124
127	0x3c832be2	0.016012136
128	0xbdab8725	-0.08375386
129	0xbda7cbc1	-0.0819316
130	0x3d6d1963	0.05788554
131	0xbd8ef869	-0.06980974
132	0xbda585ad	-0.08082137
133	0x3d2c4eb9	0.042067263
134	0x3d5d4bf2	0.054027505
135	0x3d7a9bfc	0.061183915
136	0xbda488c4	-0.080338985
137	0x3d2a78dc	0.041619167
138	0xbdf67a7b	-0.1203508
139	0xbd4a04fd	-0.049321163
140	0xbc19e855	-0.009393771
141	0x3d35c74a	0.04437951
142	0x3d2aa400	0.04166031
143	0x3bd6b7d0	0.006552674
144	0xbd56e895	-0.0524679
145	0xbc9efda4	-0.019408055
146	0xbd61f8d5	-0.055168945
147	0x3c655ab0	0.013998672
148	0xbd5455b2	-0.051839538
149	0xbbfbfa77	-0.00768977
150	0x3d4569bd	0.048196543
151	0xbd86278b	-0.06550511
152	0x3c1e8643	0.009675565
153	0xbba64aee	-0.0050748503
154	0xbd9b964b	-0.075970255
155	0xbd0757cf	-0.033042725
156	0x3d260820	0.040535092
157	0xbd4aa262	-0.049471267
158	0xbaa792b5	-0.0012784811
159	0x3d124437	0.035709586
160	0x3d67bc87	0.056576278
161	0xbd403595	-0.0469261
162	0xbd898209	-0.06714255
163	0xbc2f0660	-0.010682672
164	0x3d5e5e1d	0.054288972
165	0xbc157781	-0.00912273
166	0xbdb93e34	-0.090450674
167	0xbd4c0fdf	-0.049819823
168	0xbd80bb2d	-0.06285701
169	0x3d19ff23	0.037596833
170	0x3d2d1313	0.04225452
171	0xbd9a5540	-0.075357914
172	0x3d0d6c80	0.0345273
173	0xbde0a032	-0.10968055
174	0xbd6f2b8d	-0.058391143
175	0xbcf04bc3	-0.029333001
176	0xbd3d6a15	-0.046243746
177	0x3c25a4db	0.010110105
178	0x3a0d03c2	0.0005379283
179	0xbd2d8b51	-0.04236919
180	0xbc6e3cbc	-0.014540847
181	0x3d47cbb4	0.04877825
182	0xbd4199c1	-0.04726577
183	0x3d649c00	0.055812836
184	0xbcebbbf4	-0.028776146
185	0x3d22c6b3	0.039740276
186	0x3dd9c30e	0.10632907
187	0xbc23631c	-0.00997236
188	0xbd943a4c	-0.07237682
189	0x3c996a06	0.018727314
190	0xbd827911	-0.06370748
191	0xbc7e795d	-0.015531865
192	0x3d428395	0.047488768
193	0x3d0e66bc	0.034765944
194	0xbd5eaec2	-0.05436588
195	0x3c0ecafa	0.008715386
196	0xbc8608b1	-0.016361566
197	0xbdcb0e8a	-0.099148825
198	0x3d861460	0.06546855
199	0xbc83d115	-0.016090909

weight f4 [200, 200]
0	0x3c67a9bd	0.01413959
1	0xbd24cf13	-0.040236544
2	0x3d638a9e	0.055552118
3	0xbd5e5c91	-0.054287497
4	0xbd9c1c5b	-0.07622596
5	0xbcca4ae5	-0.024693916
6	0x3c8e56cf	0.017375378
7	0x3cedf3bc	0.029046886
8	0xbd6208e2	-0.055184253
9	0xbc7d0c40	-0.015444815
10	0xbd41c670	-0.047308385
11	0x3d385e92	0.045012064
12	0x3beaa511	0.0071607907
13	0xbdb98975	-0.09059421
14	0x3d3ed494	0.04658945
15	0xbd4745b1	-0.048650447
16	0xbd8194c1	-0.06327201
17	0x3d368ece	0.044569783
18	0xbd2d88b9	-0.042366717
19	0xbd276752	-0.04087002
20	0x3d83f3bd	0.06442974
21	0x3cc51afc	0.024060719
22	0x3cfa7ea4	0.030577965
23	0xbb458e4a	-0.0030144625
24	0x3cac53c8	0.021036044
25	0x3c917ee9	0.01776071
26	0xbda9781f	-0.082748644
27	0x3cb6c6c4	0.022311576
28	0xbdb0a2ac	-0.08624777
29	0xbd8d2e9c	-0.06893656
30	0xbc214070	-0.009842023
31	0xbc52c6fc	-0.012864824
32	0x3d0e4a81	0.03473902
33	0x3cc2c65c	0.023776226
34	0x3d892f96	0.066985294
35	0x3d4da218	0.050203413
36	0x3c89efb1	0.016837927
37	0x3c847a98	0.016171739
38	0xbd4c0b60	-0.049815536
39	0xbd6e1518	-0.058125585
40	0x3d1e4c8c	0.03864722
41	0x3d41795e	0.047234885
42	0x3d74f1df	0.05980098
43	0x3ce058ff	0.027386187
44	0x3c6b7416	0.014370939
45	0xbd7cc7a4	-0.06171383
46	0xbc9062e6	-0.017625283
47	0xbcb7585d	-0.022381002
48	0x3c864665	0.016390989
49	0x3cede62f	0.029040424
50	0xbce17b66	-0.027524661
51	0xbd5a2627	-0.05325904
52	0xbce504e4	-0.027956434
53	0x3d0b433b	0.033999663
54	0xbc2ca018	-0.010536216
55	0xbd8bf7d2	-0.06834377
56	0x3b90cd01	0.0044189696
57	0xbd046e95	-0.03233202
58	0x3c4065ec	0.01174305
59	0xbba18710	-0.004929431
60	0xbc66a96c	-0.014078479
61	0x3cda7920	0.026669085
62	0xbd7e12fe	-0.06202983
63	0xbd317aff	-0.04333019
64	0x3d632f9f	0.055465337
65	0x3d8a5977	0.06755345
66	0xbda5c660	-0.08094478
67	0x3c3e44e5	0.011613105
68	0xba959e6c	-0.0011415011
69	0x3c39b238	0.011333995
70	0xbd831cda	-0.064019874
71	0x3bcb7490	0.0062089637
72	0x3c0a1df2	0.008429991
73	0x3d82d1c5	0.063876666
74	0xbc5efb28	-0.013609685
75	0xbd440367	-0.047854807
76	0x3b6c0ed9	0.0036019592
77	0x3d8a85cc	0.06763801
78	0x3c888849	0.016666548
79	0xbd880ce2	-0.06643082
80	0xbd91983d	-0.07109115
81	0xbda1d5cf	-0.07902109
82	0x3d1b8a14	0.03797348
83	0x3bab48bd	0.005227177
84	0x3d323681	0.04350901
85	0x3d2f4599	0.042790983
86	0x3b3ec682	0.002911002
87	0x3c34f0c6	0.011043733
88	0x3b9bcd6a	0.004754712
89	0xbd177192	-0.036973543
90	0x3d336396	0.043796144
91	0x3d84bf3a	0.06481786
92	0xbd9ae2aa	-0.07562764
93	0x3d0e7d8f	0.03478771
94	0x3c2e71f3	0.010647285
95	0xbcebf336	-0.028802495
96	0x3cf59671	0.029978963
97	0xbc82f1af	-0.015984384
98	0x3d35bd33	0.044369888
99	0x3d731e20	0.0593549
100	0xbd934a6d	-0.0719193
101	0xbce9288c	-0.028461717
102	0x3d7d9d8b	0.061917823
103	0xbdf20639	-0.11817593
104	0x3d5a7695	0.053335745
105	0xbbb2e1ef	-0.0054590623
106	0xbd9cb9be	-0.07652615
107	0xbd996cd0	-0.074914575
108	0xbc4783b8	-0.0121774
109	0x3bf4dd1b	0.007472647
110	0xbcbf3d4e	-0.023344662
111	0xbcafbd8a	-0.021452684
112	0x3d8edad7	0.06975334
113	0x3d645596	0.055745684
114	0x3c6d785a	0.014494026
115	0x3d92a2eb	0.071599804
116	0x3c38e75e	0.011285631
117	0xbccdf02f	-0.025138943
118	0xbc0604c5	-0.008179848
119	0x3d368737	0.044562545
120	0xbc89ccfb	-0.016821375
121	0xbd60089d	-0.054695714
122	0xbda6169c	-0.08109781
123	0x3d774609	0.060369525
124	0x3b1508c0	0.002274081
125	0xbd3ab905	-0.045586605
126	0x3cfa6a94	0.030568399
127	0x3d484e2d	0.04890268
128	0xbcf47abc	-0.02984368
129	0x3bfd16c5	0.0077236616
130	0x3d7f565f	0.06233823
131	0x3d5613d6	0.05226501
132	0x3c29543e	0.010335026
133	0x3c10c84b	0.008836816
134	0xbca92160	-0.020645797
135	0x3d84e713	0.064893864
136	0xbd7a170b	-0.06105713
137	0xbd1f5e00	-0.038908005
138	0x3d44fa60	0.04809034
139	0xbd9fed9f	-0.078089945
140	0xbd5e2714	-0.054236487
141	0xbc8e8fe8	-0.017402604
142	0xbdd8677f	-0.10566615
143	0x3d40bd6c	0.047055647
144	0x3d88861b	0.066662036
145	0xbd7dd208	-0.06196788
146	0x3d6c63d8	0.057712406
147	0x3c95cafe	0.01828527
148	0x3cc757bc	0.024333827
149	0x3ccc95fb	0.02497386
150	0xbd37137c	-0.044696316
151	0x3d9aadb8	0.075526655
152	0xbbb2555a	-0.0054423036
153	0xbd76ce24	-0.060255185
154	0x3d368f00	0.04456997
155	0x3d074344	0.033023134
156	0x3d0a17ac	0.03371398
157	0xbc2dfb35	-0.010618974
158	0xbdba672e	-0.09101711
159	0xbcf0482e	-0.029331293
160	0xbdbaa24f	-0.09112989
161	0x3be4cd09	0.00698245
162	0xbbe6d7a8	-0.007044751
163	0x3c0e8cc8	0.008700557
164	0x3d4fb8be	0.050713293
165	0xbd4789ad	-0.048715282
166	0x3c99f2df	0.018792568
167	0xbd38443a	-0.04498694
168	0xbd5a4c00	-0.053295135
169	0x3d03ca29	0.032175217
170	0x3d846693	0.06464877
171	0x3c9ebc20	0.019376814
172	0x3be0747e	0.0068498245
173	0x3d04dfce	0.03244
174	0xbbcd5bd6	-0.006267051
175	0xbd4cf2b7	-0.05003616
176	0xbcba39aa	-0.022732574
177	0xbc8e162c	-0.017344557
178	0xbda89f7d	-0.08233545
179	0xbd338bd3	-0.04383452
180	0x3c031eb8	0.008002929
181	0xbd19877d	-0.037482727
182	0xbce0d0f1	-0.027443381
183	0x3d506671	0.050878946
184	0x3d8e4fb4	0.06948796
185	0x3c874cff	0.016516207
186	0xbdb5f742	-0.08885051
187	0xbd308e86	-0.04310467
188	0x3c0ae940	0.008478463
189	0xbcdb8238	-0.026795492
190	0x3cbd13b3	0.023080682
191	0xbd6215c1	-0.055196527
192	0xbd042312	-0.03226001
193	0xbc17c0b1	-0.00926225
194	0xbcfb5000	-0.030677795
195	0x3b40a320	0.0029394105
196	0x3ca35dd8	0.01994221
197	0xbca899ff	-0.020581244
198	0xbd498438	-0.04919836
199	0xbd6c97e2	-0.057762034
200	0x3d1bf0b3	0.038071346
201	0xbd119c01	-0.035549168
202	0xbd40bb92	-0.04705388
203	0xbd0116ac	-0.031515762
204	0x3cbacb38	0.02280198
205	0x3c832048	0.016006604
206	0xbda2f76b	-0.079573475
207	0xbd619430	-0.055072963
208	0xbc8344e6	-0.016024064
209	0x3d547c1c	0.051876172
210	0x3b3e7849	0.0029063395
211	0x3d3bd4c8	0.04585722
212	0xbc9dd319	-0.019265698
213	0xbc8f59eb	-0.01749893
214	0xbd83db5d	-0.064383246
215	0x3d4d84b6	0.05017539
216	0xbafb4e00	-0.0019173026
217	0xbd99da34	-0.07512322
218	0xbd386bab	-0.045024555
219	0xbc14613a	-0.009056384
220	0x3d5d01bf	0.053956743
221	0xbd20c9fd	-0.03925513
222	0x3d6fe516	0.058568083
223	0x3d864a2d	0.06557117
224	0xbda6eaed	-0.08150277
225	0xbcd23b2c	-0.025662981
226	0x3d056cef	0.03257459
227	0xbda5e1ad	-0.08099685
228	0x3d3595a7	0.044332173
229	0x3d1454a8	0.036213547
230	0xbd4f6c36	-0.050640307
231	0x3d71ffee	0.059081964
232	0x3c6769d2	0.014124351
233	0x3c922575	0.017840127
234	0x3d0978bb	0.033562403
235	0xbd5d4d74	-0.054028943
236	0x3ce42242	0.027848367
237	0xbd0462c8	-0.032320768
238	0xbbab8f81	-0.005235613
239	0x3b59a31a	0.0033208788
240	0xbd890aad	-0.06691489
241	0xbcb5febb	-0.022216192
242	0xbcf05408	-0.029336944
243	0x3d08562c	0.033285305
244	0x3bc58e70	0.0060289428
245	0xbd3c7f0c	-0.0460196
246	0xbd5ec43f	-0.054386374
247	0xbda13a8e	-0.078724965
248	0xbcd24f54	-0.025672592
249	0x3c87c27c	0.01657223
250	0x3d493558	0.04912314
251	0xbd9cbc54	-0.07653108
252	0xbd83a0cb	-0.06427153
253	0x3d3c38e4	0.045952693
254	0xbce22f65	-0.02761049
255	0xbcc8c2d3	-0.024506962

bias f4 [200]
0	0xbd9e2412	-0.077217236
1	0xbd91ee2c	-0.07125506
2	0xbd83f1ab	-0.06442579
3	0xbbbf7d0e	-0.005843765
4	0x3c929859	0.01789491
5	0xbc07bf24	-0.008285318
6	0xbc431b92	-0.011908429
7	0x3d45b99b	0.04827271
8	0x3c952710	0.018207103
9	0xbdaad312	-0.0834104
10	0xbd952407	-0.07282262
11	0x3acecc85	0.0015777504
12	0xbcf97a18	-0.030453727
13	0x3cd4446c	0.025911532
14	0xbd4be27f	-0.04977655
15	0xbd77ae54	-0.060468987
16	0x3c00a051	0.007850722
17	0xbcc602c5	-0.024171242
18	0x3d27f24f	0.041002568
19	0xbce4ad63	-0.027914708
20	0x3d70bc76	0.05877348
21	0x3d77976e	0.06044715
22	0xbca3fc1f	-0.020017682
23	0xbd033ce2	-0.032040484
24	0xbc545b24	-0.012961183
25	0x3cbafdd4	0.022826113
26	0xbcef2e77	-0.02919696
27	0x3c4076bc	0.0117470585
28	0x3d8e101b	0.069366656
29	0x3c825ad7	0.015912456
30	0x3d352bdd	0.044231284
31	0xbda222a7	-0.07916766
32	0x3c24576c	0.010030609
33	0xbc5ff3f9	-0.013669007
34	0xbca7d51f	-0.020487366
35	0xbd3299cd	-0.043603707
36	0x3ceefaf9	0.029172407
37	0x3c123dd6	0.008925876
38	0xbda19fbf	-0.07891797
39	0x3d638b31	0.055552665
40	0xbd2681fd	-0.04065131
41	0xbd9efbd9	-0.0776288
42	0xbd95632e	-0.07294308
43	0x3d287d7d	0.0411353
44	0x3cdbc5b0	0.026827663
45	0xbd71f3ea	-0.059070505
46	0x37ef0faf	2.8498323e-05
47	0xbd88acba	-0.0667357
48	0x3c9e3754	0.019313492
49	0xbd6ade89	-0.057341132
50	0xbd4238d2	-0.04741747
51	0x3d0fa60c	0.035070464
52	0xbd05c5e0	-0.03265941
53	0xbc3b0c14	-0.011416454
54	0x3be21e9a	0.0069006206
55	0xbcd115ae	-0.025523033
56	0x3d87fda0	0.06640172
57	0x3d68691e	0.056740873
58	0xbdb593d1	-0.08866084
59	0xbd6d8bca	-0.05799464
60	0x3d3077bf	0.04308295
61	0xbd5c1764	-0.053733245
62	0xbd88b732	-0.06675567
63	0xbd0eb7e4	-0.03484334
64	0xbcfcbff4	-0.03085325
65	0x3c49bc35	0.012312938
66	0x3c5b345c	0.013379183
67	0xbd349604	-0.04408838
68	0x3cac9e02	0.021071438
69	0x3d042cf8	0.032269448
70	0xbdd303b2	-0.10303439
71	0xbd4f8d1d	-0.050671685
72	0x3de34655	0.11097399
73	0x3d63f245	0.055650968
74	0x3d0276e6	0.03185167
75	0x3d4a8d65	0.04945125
76	0xbd9ed508	-0.07755476
77	0xbd3b02d9	-0.045657013
78	0xbad3ab7d	-0.001614913
79	0x3dc6013e	0.09668206
80	0xbb942424	-0.00452091
81	0xbdbb1c2c	-0.09136233
82	0xbd9e8097	-0.0773937
83	0x3ce1ece1	0.027578773
84	0x3d85bd23	0.065302156
85	0xbd151b11	-0.036402766
86	0x3e3ca16d	0.18420954
87	0x3ca4bba8	0.020109013
88	0x3cc6b635	0.024256805
89	0xbc97eea2	-0.018546406
90	0xbd8f7856	-0.07005374
91	0xbbb57055	-0.0055370727
92	0xbd7cb4cf	-0.06169587
93	0xbdaadb67	-0.08342629
94	0xbd2f8185	-0.04284813
95	0x3c4240a6	0.011856234
96	0x3e2a0e0f	0.16606925
97	0xbd0068cb	-0.03134994
98	0xbe01e0a2	-0.12683347
99	0xbc478044	-0.012176577
100	0x3d80327c	0.06259629
101	0xbd531552	-0.051534005
102	0xbc23eab0	-0.010004684
103	0xbc376b23	-0.011194977
104	0x3c2ee836	0.010675481
105	0x3d8312fa	0.06400104
106	0x3d135a04	0.035974517
107	0xbd84831a	-0.06470318
108	0x3d38bb95	0.045100767
109	0x3d27f2fd	0.041003216
110	0x3d6d4167	0.0579237
111	0xbc6c1292	-0.014408724
112	0xbd779b63	-0.060450923
113	0x3d12d00f	0.03584295
114	0xbda0fb98	-0.07860488
115	0x3d0a3abd	0.033747423
116	0xbba66c76	-0.0050788475
117	0xbbfde632	-0.0077483887
118	0x3d29cf9e	0.041457765
119	0x3c82aa5e	0.015950378
120	0x3e299b8c	0.16563243
121	0xbbe34565	-0.0069357627
122	0x3e1a427d	0.15064426
123	0xbd6737e9	-0.056449804
124	0xbd85dc1c	-0.06536123
125	0xbda74614	-0.08167663
126	0x3d06bcc0	0.03289485
127	0xbdb4adaa	-0.08822186
128	0xbdc69573	-0.09696474
129	0x3ad04064	0.001588833
130	0xbdf03514	-0.11728874
131	0x3e079aaa	0.13242593
132	0xbd579390	-0.05263096
133	0x3d7ef66c	0.062246725
134	0xbd2b7ced	-0.041867185
135	0xbd464b7b	-0.048411828
136	0xbd8e187e	-0.06938265
137	0x3b83c4ce	0.0040212637
138	0x3d6578f0	0.056023538
139	0xbd6eb720	-0.05828011
140	0xbceac525	-0.028658459
141	0xbcd75825	-0.026287148
142	0xbd962fab	-0.07333311
143	0x3d851536	0.06498186
144	0xbd341395	-0.043963987
145	0xbd0441ce	-0.03228932
146	0xbd119ff1	-0.035552923
147	0x3c9e5615	0.019328156
148	0x3b2f9775	0.0026793156
149	0xbdbcc619	-0.09217472
150	0xbccaf6d6	-0.024775904
151	0x3d53f3b6	0.051746093
152	0x3cc49856	0.02399842
153	0xbd824431	-0.06360663
154	0xbd1c589d	-0.038170446
155	0xbc68523a	-0.014179761
156	0x3c34971d	0.011022356
157	0xbd433624	-0.047659054
158	0xbb8b50fc	-0.0042515974
159	0xbd2853c4	-0.04109551
160	0x3c20eb63	0.009821746
161	0x3ca48753	0.020084059
162	0xbd210731	-0.0393135
163	0x3d2a6429	0.041599426
164	0x3d5c9620	0.053854108
165	0xbcd7a3ee	-0.026323285
166	0xbd4bccfb	-0.04975603
167	0xbd423a32	-0.04741878
168	0xbd45789d	-0.04821073
169	0x3c62145f	0.013798802
170	0xbcf78a66	-0.03021736
171	0x3e208fc1	0.15679838
172	0x3cadaf8e	0.021201875
173	0xbd8a0182	-0.06738569
174	0x3d528b95	0.051402647
175	0x3b89fd74	0.004211122
176	0x3dc93b74	0.09825793
177	0xbc1d1ae5	-0.009588932
178	0xbd4a7be6	-0.049434565
179	0xbd84830a	-0.06470306
180	0x3d14f854	0.036369637
181	0xba166ac1	-0.00057379535
182	0x3d646f44	0.055770174
183	0xbc889ca7	-0.01667626
184	0xbd05a9b3	-0.03263254
185	0x3cfcf058	0.030876324
186	0x3d1856c9	0.03719214
187	0xbc4ca420	-0.012490302
188	0xbd4dac62	-0.050213225
189	0xbda32f76	-0.07968037
190	0xbd289fdb	-0.041168075
191	0x3b93cdff	0.0045106406
192	0x3c1f8f81	0.009738804
193	0x3c1595e5	0.009129976
194	0x3c2d906b	0.010593514
195	0x3d09db49	0.033656392
196	0xbca3b553	-0.019983923
197	0x3d2c7239	0.04210112
198	0xbd92d756	-0.07169978
199	0xbd163d6f	-0.03667968

weight f4 [2, 200]
0	0xbd2e53e8	-0.042560488
1	0x3d4c366d	0.049856592
2	0x3bab23f0	0.00522279
3	0x3d8222f9	0.06354327
4	0x3c2a49ff	0.010393619
5	0x3c5435f9	0.012952321
6	0x3d168431	0.03674716
7	0xbd630f7d	-0.055434693
8	0xbd94eaa2	-0.07271315
9	0xbccc4d26	-0.024939131
10	0x3caef747	0.021358145
11	0x3c04cd3f	0.008105575
12	0x3d762b00	0.0600996
13	0x3cfcf729	0.030879574
14	0xbd7a4207	-0.061098125
15	0xbd129ece	-0.03579598
16	0xbb2055d1	-0.0024465213
17	0xbd6901f7	-0.05688664
18	0xbd9ed9fd	-0.07756422
19	0x3c82c475	0.015962819
20	0x3b71a9f1	0.0036874975
21	0x3c3d05ee	0.011537058
22	0x3cc2278b	0.023700496
23	0xbc8c1591	-0.017100127
24	0x3c66a4f3	0.014077413
25	0x3c8f8653	0.017520105
26	0xbc977049	-0.018486159
27	0xbc5d89bd	-0.013521609
28	0x3c8e936a	0.017404277
29	0x3ce00a7f	0.027348755
30	0x3ce38366	0.027772617
31	0x3d4bb871	0.049736444
32	0x3b4911d5	0.0030680795
33	0xbca3234e	-0.019914296
34	0x3d4137e5	0.047172446
35	0x3c9e099e	0.019291695
36	0x3cee6b68	0.02910395
37	0x3c86c7ce	0.016452696
38	0xbc291490	-0.010319844
39	0xbd49f453	-0.04930527
40	0x3c9c25a4	0.019060917
41	0xbc472d06	-0.0121567305
42	0xbc3f64f3	-0.011681783
43	0x3d24d320	0.040240407
44	0x3d212443	0.039341222
45	0xbc2a0430	-0.010376975
46	0xbc72ccd0	-0.014819339
47	0xbc847b1a	-0.01617198
48	0xbc3b11d2	-0.011417823
49	0xbd797978	-0.060906857
50	0x3d54f0e5	0.051987547
51	0xbd2d6169	-0.042329226
52	0x3d6396c8	0.055563718
53	0xba3234e0	-0.000679804
54	0xbcd6bd6a	-0.026213367
55	0x3c773f26	0.015090739
56	0xbc8d9e91	-0.017287524
57	0xbd013566	-0.031545065
58	0xbd86815b	-0.06567641
59	0x3d587675	0.052847344
60	0xbb6e82be	-0.0036393846
61	0x3c7a34af	0.01527135
62	0xbc01d305	-0.007923846
63	0x3d0a706f	0.03379863
64	0xbd18c5f9	-0.037298176
65	0xbd7c222f	-0.061556038
66	0xbd7d9605	-0.061910648
67	0xbdac569a	-0.084149554
68	0x3b383436	0.0028107292
69	0xbb17446a	-0.002308155
70	0x3b9c2721	0.0047654067
71	0xbd3f23fe	-0.046665184
72	0xbdc57f31	-0.096434005
73	0xbc91c233	-0.017792797
74	0x3afc70ca	0.0019259688
75	0xbd02c254	-0.031923607
76	0x3d4a0bee	0.049327783
77	0x3c262cc9	0.010142514
78	0xbd1b1977	-0.037866082
79	0xbd36c41f	-0.04462063
80	0xbd2ccf04	-0.042189613
81	0xbcbb7903	-0.022884851
82	0xbbbfb5fa	-0.0058505507
83	0x3bf14b9f	0.007363751
84	0xbbdc1cf1	-0.0067173173
85	0x3d7f8b59	0.06238875
86	0xbdc40a69	-0.09572298
87	0x3bba6d65	0.0056893104
88	0x3c732b77	0.014841906
89	0xbc894303	-0.016755586
90	0x3d0c7f34	0.034300998
91	0x3ce148b3	0.027500486
92	0x3b6d198c	0.0036178557
93	0x3ce69f7e	0.028152224
94	0xbd7f2ee6	-0.062300585
95	0x3d0ca7c0	0.034339666
96	0xbdba8c30	-0.0910877
97	0x3d6cff57	0.0578607
98	0xbd7fb0a6	-0.062424324
99	0xbcd866b5	-0.026416162
100	0xbd6c71af	-0.057725605
101	0xbcdffe46	-0.027342927
102	0xbd265348	-0.040606767
103	0xbd675000	-0.05647278
104	0x3d43abd2	0.047771282
105	0xbd23a05b	-0.03994785
106	0xbcdd1b00	-0.026990414
107	0xbd533e97	-0.051573362
108	0x3d023772	0.031791158
109	0x3c318690	0.010835305
110	0xbd87e00d	-0.06634531
111	0xbd8be2ed	-0.06830392
112	0x3d381719	0.044943903
113	0xbd9729d6	-0.073810264
114	0xbd0ad76f	-0.03389686
115	0xbcf12ef0	-0.029441327
116	0xbcdd660b	-0.027026197
117	0x3c8fc0f9	0.017548071
118	0x3c852d1d	0.016256863
119	0x3d4e701f	0.050399896
120	0xbda98f2a	-0.082792595
121	0x3bbe61e2	0.0058100084
122	0xbdc5a094	-0.096497685
123	0x3c99540d	0.018716836
124	0x3cfe6eba	0.031058658
125	0x3ca3b60e	0.019984271
126	0xbd5c4e50	-0.053785622
127	0x3bd368be	0.006451695
128	0xbc03dc7a	-0.008048171
129	0xbd920cf6	-0.07131378
130	0xbd97cc30	-0.074119925
131	0xbdb8f99c	-0.09031984
132	0x3c8e5a9c	0.01737719
133	0x3a47580c	0.00076043676
134	0xbca81b53	-0.020520842
135	0xbd94f579	-0.07273383
136	0x3d6fb2db	0.05852018
137	0xbd874946	-0.06605773
138	0x3c720ffb	0.014774318
139	0x3d9e4433	0.07727852
140	0xbb87cded	-0.0041444213
141	0xbb363c96	-0.0027807108
142	0xbc66ca70	-0.014086351
143	0x3cb49bfb	0.022047034
144	0x3c1a84af	0.009431048
145	0x3c55e544	0.0130551495
146	0xbc94ecd8	-0.018179342
147	0x3cbc8198	0.023011014
148	0xbbd8af4b	-0.0066126934
149	0x3cbb3b36	0.022855382
150	0xbc199fb8	-0.009376459
151	0x3b266f3a	0.0025395886
152	0x3bb214cb	0.0054346076
153	0x3b1d02e5	0.0023958024
154	0xbda3eb82	-0.08003904
155	0xbce6d706	-0.028178703
156	0xbcac5d30	-0.021040529
157	0x3cb60982	0.02222133
158	0x3cd0efe1	0.025505008
159	0xbda0012d	-0.07812724
160	0xbc773692	-0.015088694
161	0x3c840dad	0.016119802
162	0x3cbcec4f	0.0230619
163	0xbd0e1e6d	-0.034696985
164	0x3c57f7b8	0.013181619
165	0x3acbace8	0.0015539201
166	0x3d5712c0	0.052508116
167	0xbc3b3c40	-0.011427939
168	0xbd81bd1f	-0.063349
169	0x3ce12ed3	0.027488148
170	0xbd8cf7c5	-0.06883196
171	0xbc8010b8	-0.015632972
172	0xbd13a08d	-0.036041785
173	0xbbca5aed	-0.00617539
174	0xbcc88b23	-0.024480408
175	0x3cfa1e1b	0.030531934
176	0xbd15eb47	-0.03660133
177	0x3bf63007	0.0075130495
178	0x3ca3460e	0.019930866
179	0x3cbf9753	0.023387587
180	0x3d333e42	0.043760546
181	0x3cf13b66	0.029447269
182	0x3d8fe1d4	0.07025495
183	0xbcf6d007	-0.030128492
184	0x3c204958	0.0097831115
185	0xbd058e00	-0.032606125
186	0x3c4506a7	0.012025512
187	0xbcd4e26d	-0.025986874
188	0xbd62fc90	-0.055416644
189	0xbd233940	-0.03984952
190	0x3d66f60a	0.056386985
191	0xbc39361f	-0.011304407
192	0x3bcd4667	0.006264496
193	0xbc6bb5a0	-0.0143865645
194	0x38eba72d	0.00011236812
195	0x3d146c3c	0.036236033
196	0xbbf514a3	-0.0074792667
197	0x3d20369a	0.039114572
198	0x3c7ed9ac	0.015554827
199	0x3bb191ca	0.0054189907
200	0xbd22f0da	-0.039780475
201	0x3b6301a1	0.0034638422
202	0xbd06b899	-0.03289089
203	0xbc269ca0	-0.010169178
204	0xbc428b8f	-0.011874094
205	0xbc64f3d4	-0.013974149
206	0xbd01f7e2	-0.03173054
207	0xbd643794	-0.055717066
208	0xbd95bd56	-0.073115036
209	0xbcd89305	-0.026437292
210	0xbd6b1bce	-0.057399563
211	0x3d6c3940	0.057671785
212	0xbd6fad96	-0.058515154
213	0xbb935c6f	-0.004497103
214	0xbd806732	-0.06269683
215	0xbd019911	-0.031640116
216	0x3c078c1e	0.008273153
217	0xbd69e80a	-0.057106055
218	0xbd9f0e66	-0.07766418
219	0x3ab70360	0.0013962798
220	0x3d706234	0.058687404
221	0xbc003ecf	-0.007827475
222	0x3cfbf96d	0.030758584
223	0x3c90ab1d	0.017659718
224	0x3ccd7e38	0.0250846
225	0x3c5bef6a	0.01342378
226	0x3d7ec6d9	0.062201355
227	0xbc475b87	-0.012167818
228	0x3c5b0a55	0.013369163
229	0x3c932faa	0.017967064
230	0x3d4fadd4	0.050702885
231	0x3d1793e6	0.03700628
232	0x3b91cc93	0.004449436
233	0xbca07613	-0.019587552
234	0x3d4731cc	0.048631474
235	0xbbbc8c10	-0.0057540014
236	0x3d872ad3	0.06599965
237	0xbc0a2e83	-0.008433941
238	0xbc570a59	-0.013125026
239	0x3d099bb9	0.033595774
240	0x3c7ae848	0.015314169
241	0xbc4ced37	-0.012507728
242	0x3c9016bf	0.017588971
243	0xba5e2485	-0.000847407
244	0x39302590	0.00016798661
245	0xbd460e68	-0.048353583
246	0xbc764d08	-0.015033014
247	0xbc84617a	-0.016159762
248	0x3d8145fc	0.063121766
249	0xbd790075	-0.06079145
250	0xbcef680d	-0.02922442
251	0xbd2d64cb	-0.04233245
252	0x3b497074	0.0030737193
253	0xbb7d6c58	-0.0038669314
254	0x3d71009c	0.05883847
255	0xbd7ed93a	-0.062218882

bias f4 [2]
0	0x3c39be31	0.011336849
1	0x3c3c884b	0.011507104
